cifar10_63.pth (torch, 251179 bytes, 10 tensors)

conv1.weight f4 [6, 3, 5, 5]
00000000: b1ca 30be 46a9 8abe 8ef8 fe3e 6054 d03e
00000010: bde2 cebe f74b 2c3d d6b5 89bf b35a 9b3d
00000020: 1e2f 713f 78b3 7dbe 0a24 253f 824f 46bf
00000030: 1782 42bf 8923 013f 8646 3e3d 042b 043f
00000040: e421 8ebc 3315 26bf 0f80 cc3d 10d3 9dbd
00000050: 05f0 423e dc1d 6e3e add3 c4be 8226 703e
00000060: e701 babd 5bcd b4bd b9a6 81be 8330 a63e
00000070: 1b3b 953e f793 56be 444d a03e 7e5b 85bf
00000080: 3475 ddbd c211 8c3f 9da5 2e3d cccf 353f
00000090: 4d1e 32bf 78df 50bf 9300 143f 465b 5c3e
000000a0: 92c2 c33e 12c5 153d 15ff 2abf ecf4 ae3e
000000b0: 492d f33d 59ee 4fbb 3288 d8bc 1a7f 8cbe
000000c0: 687b c03e 5fc5 5639 316e a2bd 261c 33be
000000d0: bdd6 d03e 2ede 033e f36d 2ebf fbe7 a93e
000000e0: 6d0c 2bbf 82ed f33d b729 3d3f 5657 d5be
000000f0: d284 2e3f f861 d1be cad8 13bf 24e6 f63e
00000100: 809a 91bd 6b0d 9f3e 35d5 4a3e 4959 a2be
00000110: f12b cd3d 360e 82be c40a f23c 7e36 9f3e
00000120: 15a8 e5bd 47a2 ed3d 893c 1ebe 5b64 44be
00000130: fab2 b0bd 521b 5fbe 43b3 15be 7f2a 813d
00000140: bc69 a2be 250f cebe f916 b5be 6641 12be
00000150: f623 fcbd 7e7c 82be 1452 19be e0a8 77be
00000160: bc24 35be 6b54 9abd e375 b6be 100c 7abe
00000170: b54f 69be fc5c 153b 6e04 bfbc 43b5 dabb
00000180: 3673 e7bd 6963 9cbd 225f 2f3e bdbe 913d
00000190: b532 b7bb e791 2ebd ff56 383d 9322 393c
000001a0: b87d 24be ff42 43bd 2d0b fa3d 0de3 dd3d
000001b0: eee5 3c3d 7bbe 943d f39b 24bd 2beb a63e
000001c0: cbbc 643e a252 013e fccb f4bd ea19 28be
000001d0: 0d8d 303d 275c e9bc 6a07 84bc ba5e 69bd
000001e0: 3755 0cbe 77d5 693d b0b5 c83c 0266 64bc
000001f0: a878 fabd e57d b83e 523a c93e c499 8f3e
00000200: c067 213e da4b cbbc 7eb5 cd3e 0db4 f53e
00000210: 7fdf c93e 7339 8f3e e547 963b 5824 d63e
00000220: 0012 f33e 2107 fe3e 4633 943e 9feb 84bc
00000230: 035c 023e 99e0 5b3e 0cb3 923e e92f 0b3e
00000240: 56ab 51be 3a56 56bd c834 c43d 462d 15bc
00000250: cba5 98bd a7df 9abe 8b43 e53d cc93 913e
00000260: 674f 493e fb23 5fbd 0499 7dbe 481a 133f
00000270: 7798 863f 9783 7f3f e51b 203f f722 223e
00000280: 54e8 c0bd 71c1 9abe 4e37 8ebe 3206 333d
00000290: e09b 763e 9b88 17be f4b5 e0be 7419 21bf
000002a0: a037 edbe ab85 d33d b4be 8fbe e8f8 71be
000002b0: 2e14 86bd 3059 4dbe f3a7 fdbe 9a75 6dbe
000002c0: ec46 c3bd b8c0 ab3d f66c 2c3d ce84 97be
000002d0: df00 6f3e e37d df3e 977f 1d3f d529 9f3e
000002e0: bc56 093e c1ea 0abf 1c49 51bf a4fc 3ebf
000002f0: 9e9d 87be ecea 933b a45a 8abe 1e15 d4be
00000300: f0e7 01bf 9b32 7ebe 1a44 6a3e d968 173e
00000310: bec6 983e 9412 ae3e 293d 163e 6094 d43b
00000320: 3f76 1cbe 7c9f 83bd c161 fdbc 5046 0fbe
00000330: ed9f 2abe 7ff0 9e3e 8401 d53e 7d7c bc3e
00000340: 8021 913e 29bc 423d d694 9ebe 4906 19bf
00000350: 64cc 17bf 1514 a2be 33c7 13be b09a 353d
00000360: ce54 cdbd 3668 e2bd c9c9 74bd 04f4 133e
00000370: 0518 8e3e 57db 323f 05cb 293f 3c8d a73e
00000380: 814e 503d 55e7 2b3d df20 f3bd 2c70 1abe
00000390: 05d1 803e 5408 743e 5f52 153d 39c9 48be
000003a0: dd9c 86be 817e 933d db2d 383e 8700 d53c
000003b0: 87cd c33d 97dc 893d 80ee b2bd b902 adbd
000003c0: ac5f 33bd 32cc 0e3f 11a8 373e 18d1 16bf
000003d0: 56c2 79be daba ee3d 274e ca3e 5089 93be
000003e0: a33b adbe 5ea2 113e 8132 ce3b 7491 f6bd
000003f0: b6ce 2fbd 05ae 1f3e 82e5 7ebd 563c b83d
-0.1726482 -0.2708227 0.49799007 0.40689373 -0.40407363 0.042064633 -1.0758617 0.07585659
0.9421252 -0.24775493 0.64508116 -0.7746507 -0.7597975 0.5044485 0.046453975 0.51628137
-0.017350145 -0.648761 0.09985363 -0.077062726 0.19036873 0.23253578 -0.38442746 0.2345219
-0.09082394 -0.08828231 -0.25322512 0.32458887 0.29146656 -0.20954882 0.3130895 -1.0418546
-0.1081337 1.0942919 0.04263841 0.710202 -0.69577485 -0.81590986 0.57813376 0.21519193
0.38234383 0.036564894 -0.66795474 0.34171236 0.11873872 -0.003172776 -0.02643213 -0.2744072
0.37594151 0.00020482157 -0.079311736 -0.17491207 0.40788832 0.12877724 -0.6813652 0.331848
-0.66815835 0.119105354 0.73891777 -0.41668195 0.6817142 -0.40895057 -0.5775267 0.48222458
-0.07109547 0.31064925 0.19807895 -0.31708744 0.10018147 -0.25401467 0.02954615 0.31096262
-0.112137 0.116032176 -0.1545278 -0.19178908 -0.08627887 -0.21787766 -0.14619164 0.063069336
-0.31721294 -0.4024593 -0.3536909 -0.1428276 -0.123115465 -0.25485605 -0.14972717 -0.24185514
-0.17689794 -0.07535633 -0.35636815 -0.24418664 -0.22784312 0.0022791019 -0.023317542 -0.00667444
-0.113012716 -0.076361485 0.17126134 0.071164586 -0.0055907615 -0.042619612 0.04500484 0.011299747
-0.16063583 -0.047671314 0.12209163 0.10834322 0.046117716 0.07262894 -0.040187787 0.32601294
0.22337644 0.12629178 -0.119529694 -0.16416135 0.043103267 -0.028486324 -0.016116817 -0.056975104
-0.13704382 0.05708834 0.024500698 -0.013940336 -0.122300446 0.3603355 0.39302307 0.28047
0.15762234 -0.024816442 0.4017753 0.4798893 0.39428326 0.27973518 0.004586207 0.41824603
0.4747467 0.49614814 0.2894537 -0.016225634 0.12730412 0.21472396 0.28652227 0.13592495
-0.20475516 -0.052328326 0.0958038 -0.009105032 -0.074534975 -0.30248758 0.111945234 0.28433073
0.19659196 -0.054477673 -0.24765402 0.57461977 1.0515279 0.99810165 0.62542564 0.1583365
-0.09419313 -0.3022571 -0.2777657 0.04370708 0.24082899 -0.14798205 -0.4388882 -0.62929463
-0.463315 0.103282295 -0.28075182 -0.23630106 -0.06546818 -0.20053554 -0.49542198 -0.23189393
-0.09535012 0.083863676 0.0420961 -0.2959351 0.23340176 0.4365073 0.6152281 0.31086603
0.13411993 -0.54264456 -0.8175218 -0.7460425 -0.2648744 0.004514089 -0.27022278 -0.4142236
-0.50744534 -0.24823992 0.22877541 0.1478609 0.29839128 0.3399855 0.14671768 0.0064874142
-0.15279482 -0.064269036 -0.030930402 -0.13991666 -0.1666257 0.3104286 0.4160272 0.36813727
0.2834587 0.047542725 -0.30972928 -0.59775215 -0.5929625 -0.31655946 -0.14431457 0.044336975
-0.10025941 -0.11055033 -0.05976275 0.14448553 0.277527 0.69865936 0.6632541 0.3272494
0.050856117 0.041968662 -0.11871504 -0.15081853 0.2515947 0.23831302 0.03645551 -0.1960801
-0.26291552 0.07201863 0.17986242 0.026001228 0.095606856 0.06731527 -0.087368965 -0.08447785
-0.04379241 0.5578033 0.17935206 -0.589128 -0.2439054 0.11656733 0.3951275 -0.288157
-0.33834562 0.14222094 0.0062926416 -0.12039462 -0.042921744 0.15593727 -0.062230594 0.08995883

conv1.bias f4 [6]
00000000: cf28 9abe 6f2e b33e 0ff5 1bbf 8796 6dbe
00000010: c126 1cbe 38d5 03bf
-0.3010926 0.34996364 -0.60920805 -0.23201953 -0.15249158 -0.5149722

conv2.weight f4 [16, 6, 5, 5]
00000000: 498a 843d 6fd2 343e 13cd 1b3b 5414 9ebd
00000010: 0b37 09be 7f4c 8d3d 8558 643c a337 43be
00000020: 7527 be3d 6dd3 3a3c 124f eb3d 4459 c6bc
00000030: 13cf 7bbd 2c59 58bd 5f55 4c3e f94c 693d
00000040: e40e e6bd 6661 1b3d 8a7b 8f3d f807 1dbd
00000050: 8fac b0be b1e7 b8be ff16 49be a8d3 98be
00000060: 580c c6be 05ff 013e ade1 093e 0c6b a03e
00000070: 56e6 333e a782 103e dabb 3c3e 15d2 153e
00000080: a8cc 2f3e 33b9 f73d 69bb 0fbe 6f9e 2f3d
00000090: 3f64 3f3e 85b3 99bd 11ff 20be 7361 a1be
000000a0: 55dd c13d 864e 653c 3b83 31be a894 3abe
000000b0: 4d3a 4dbe 39e6 9cbe 7490 23be 61e9 99bc
000000c0: 8f55 4b3d d272 d0bd 5a26 103e ce8e 84bd
000000d0: ac1e a1bd 6a63 03be a8bf 023e 3e20 723d
000000e0: d556 25be 34bb ba3d 5880 b03d 2c34 94bd
000000f0: 264c 11bd 6579 d33d 68ab 963d 8629 823d
00000100: 4ff3 32be 236e 093e b607 6b3e 641e fa3d
00000110: c491 a03d 556f 71be 90a6 a53d c9bf 193d
00000120: f075 c03d dd03 a1b7 a393 80be d500 423d
00000130: e0fe bbbd 8675 463e 072c 473e 5bb7 bb3e
00000140: e4ca 33be 408b 713e 16d8 4e3e 081b 4d3d
00000150: d9ad c03d b645 b13e be3b 723e 8263 c23c
00000160: 4067 953c 36e7 3abe 183e 773e 1a5a 0bbe
00000170: fa04 dabd c0ac 19be 48a7 75be 8a11 97be
00000180: 1d12 a8be bd02 73be eb88 c7be cb93 bfbe
00000190: 8541 3dbe cb02 bdbd f915 33be 71d0 f2bd
000001a0: cfa5 afbc 006a 55be 3b21 b2bd 3a6d 5bbd
000001b0: ae11 f9bd 2055 87bd c1e6 b53c 3d89 19be
000001c0: 188c fcbd 9d27 29bd 474c 9f3d aa70 13bd
000001d0: 3d77 42bc 8c0f b93d 600c 30bd 9cf4 57bd
000001e0: 4c29 073e f758 273e a61d 253e 3027 c73d
000001f0: 55ac 07bd 35c0 b23e 4b53 7c3e 07a4 d03b
00000200: d620 d93a 495f ae3e fea5 373d a58e cbbd
00000210: 954a 403c 6277 7a3e 6ad9 db3d a533 7abe
00000220: 89d2 f23d 3429 ba3e e596 e83c 8ddc 7a3e
00000230: d47f b63d 14b9 473e e4e0 c83d 5c91 8dbd
00000240: 8e64 3fbd f9a6 913d ca44 d6be 9ea9 bfbe
00000250: ab61 afbe cac6 01bf 68d8 373d fa22 0dbe
00000260: 1387 08bc 15a1 61be 2d64 b33d 93bb 68be
00000270: 26ae cbbd 88da 55be d670 b03d a360 38be
00000280: 4f21 e2bd a662 163d 4722 56bd 02ee d9bd
00000290: b141 16be 1ea6 a73d b02e cb3d a04d 2dbe
000002a0: f588 f1bd 6599 81bd 3fba a93d b900 eb3d
000002b0: 751d 6f3e e9b2 0c3d 4cb4 de3c 3c10 d8be
000002c0: c3d8 9cbe 883a 61be e80c abbe 76f5 cabd
000002d0: 1693 6cbe 99a2 7dbe 2ad3 aebe de60 9abe
000002e0: 7712 293d 7982 7ebe 4bf3 80be 6642 c5be
000002f0: 7108 79be d304 be3b 96b3 17be d55f a4be
00000300: e50b 86be 5fd0 50bd e93e 613b 5aa5 56be
00000310: 5840 52be 099e 16be 46b0 32bd b94b e33d
00000320: 2620 96bd 4d3b 15be 5db3 98bd 3b01 943a
00000330: ea1c 903d 03b5 84be 931b 5ebd 3753 22bd
00000340: 7e1b a33d a07d eb3d 3cd3 43be 228d 2bbe
00000350: 1ca3 a1bd b0f9 353d 2bfc a13c 3188 59be
00000360: 780c 5abe 0ce0 523d 58a6 0c3e 6fa5 a1bd
00000370: f4fe 22bd 6dc7 b73d 7eb2 0d3e d68e 8abd
00000380: 433d 5bbe 8998 f4bd 62fd 3b3e 3e77 823d
00000390: ee8b a13e 9fc4 a63d 76ae 593e 0386 093e
000003a0: 5e8f 103c b3fc cb3d 53ab df3d 877f ae3d
000003b0: 096a 7cbd cee1 003e cdeb 173d ea4e 733e
000003c0: 7c89 67bd e392 183e 2f30 323e b1e0 433a
000003d0: 0281 8abd f2f1 4d3e 7312 df3d 6c33 c5bd
000003e0: fc14 e83d d1e6 913e d441 6ebc e901 a9ba
000003f0: b2d2 a43d 3123 fdb9 b031 43bd a369 5ebd
0.06471688 0.17658399 0.0023773357 -0.07718721 -0.13399903 0.06899356 0.01393712 -0.19064192
0.092848696 0.011402947 0.11489691 -0.024212487 -0.06147678 -0.052819416 0.19954441 0.056958172
-0.11233309 0.037934683 0.07005985 -0.038337678 -0.34506652 -0.36114267 -0.19637679 -0.2984898
-0.38681293 0.12694938 0.13464995 0.3133167 0.17568335 0.1411234 0.18431035 0.14630921
0.17167914 0.12095871 -0.14036335 0.042875703 0.18690585 -0.07504944 -0.157223 -0.3151966
0.09466044 0.013995772 -0.17335217 -0.1822077 -0.20041771 -0.30644396 -0.15973073 -0.018788042
0.049642142 -0.1017815 0.1407713 -0.0647255 -0.07867178 -0.12830892 0.12768424 0.05911278
-0.16146405 0.091177374 0.0861823 -0.072365135 -0.03547301 0.103258885 0.07356912 0.06355576
-0.17475627 0.1342092 0.2295216 0.12212828 0.078403026 -0.23577626 0.0808841 0.037536416
0.09397495 -1.9194495e-05 -0.25112638 0.047364075 -0.09179473 0.19380769 0.19450389 0.36663327
-0.17557865 0.23588276 0.20199618 0.050074607 0.09408159 0.34623498 0.23655602 0.02372909
0.01823771 -0.18252262 0.2414478 -0.1360859 -0.106454805 -0.15007305 -0.23989594 -0.2950557
-0.3282632 -0.23731513 -0.38971648 -0.37417445 -0.18482025 -0.09229048 -0.1748885 -0.11856163
-0.021441368 -0.20841217 -0.086977445 -0.053570963 -0.12161575 -0.06608033 0.022204759 -0.14993758
-0.12331408 -0.041297544 0.077782206 -0.035996117 -0.011869249 0.090361685 -0.04298055 -0.052723512
0.13199347 0.16342531 0.16124591 0.09724271 -0.033123333 0.34912267 0.24641149 0.00636721
0.0016565572 0.34057072 0.044836037 -0.09939317 0.011736532 0.24459603 0.10734828 -0.24433763
0.11856563 0.3635956 0.028392265 0.24498196 0.089111 0.19504195 0.098085195 -0.06912491
-0.046726756 0.07111926 -0.41849357 -0.37434095 -0.34254202 -0.50693953 0.044884115 -0.13782874
-0.008332985 -0.22034104 0.087593414 -0.22727804 -0.099453256 -0.20884144 0.08615272 -0.18005614
-0.11041509 0.036715172 -0.052278783 -0.106410995 -0.14673497 0.08185981 0.09921014 -0.16924143
-0.117937006 -0.06328086 0.08287477 0.11474747 0.2335108 0.03435031 0.027185582 -0.42199886
-0.30634126 -0.21994984 -0.33408284 -0.09910099 -0.23102984 -0.24769057 -0.3414548 -0.3015203
0.041277375 -0.24854459 -0.25185618 -0.3852722 -0.24319626 0.005798915 -0.148146 -0.32104364
-0.2618095 -0.05097997 0.0034369773 -0.20961514 -0.20532358 -0.14708723 -0.04362514 0.11098427
-0.073303506 -0.14573403 -0.07456086 0.0011291871 0.07036765 -0.2591935 -0.054225516 -0.03963014
0.07964228 0.114985704 -0.19123548 -0.16753057 -0.07892439 0.044427574 0.019773563 -0.21243359
-0.21293819 0.0514832 0.1373533 -0.07892882 -0.039793923 0.08973584 0.1383762 -0.06765525
-0.21410088 -0.11943156 0.18358377 0.063704 0.3155207 0.08142971 0.21257958 0.13430028
0.008823244 0.09960308 0.109213494 0.08520418 -0.06162456 0.12586138 0.03709011 0.23760572
-0.0565276 0.14899783 0.17401193 0.00074721413 -0.067628875 0.20111826 0.10892191 -0.096289486
0.113321275 0.2849641 -0.014542062 -0.0012894246 0.080479994 -0.0004828214 -0.047654808 -0.05429996

conv2.bias f4 [16]
00000000: 89d9 05bf 2b6d 6a3f 923e 1c3f 0282 83be
00000010: e85f ca3f a7d5 6cbc 820a bbbe 6f91 d23e
00000020: 2ee7 c83e b698 a5be 95f8 3ebf 448e 123f
00000030: f0ba 5abf d734 1dbf ce63 2f3d 80d1 01bf
-0.5228506 0.9157283 0.61032975 -0.25685126 1.5810518 -0.014455236 -0.36531454 0.41126582
0.39238876 -0.32343072 -0.74598056 0.5724833 -0.85441494 -0.6140875 0.04281979 -0.50710297

fc1.weight f4 [120, 400]
00000000: 453f 08bd 4f52 acbc 71a2 6cbc 197a 303d
00000010: b718 1a3c e378 58bd 4f96 0ebc 6061 62bd
00000020: 88ee c83d 0237 1b3e 7416 0b3c 19c8 4a3d
00000030: 7b65 aebb 3f55 cf3d 0cf1 593e 2101 073d
00000040: 1de8 7e3b 7912 33bd 8071 4abc 22da 5abd
00000050: e1fe 14bd 0097 263c e9c1 c4bb ef1a 73bc
00000060: 59d6 4cbd 8e9a 593d c44d cd3c 46cd fb3b
00000070: 76ad 253d 8922 593d 52a3 d03d 61e3 6d3d
00000080: 3b99 edbc a348 7b3d b645 f83d 1a7e a23d
00000090: 2024 9d3d 628d 593d 4aec bfbc 43e7 903d
000000a0: 12fb 663d 96c7 3a3d ab84 903c c2bb c33d
000000b0: 4661 efbc db05 033e 1f85 e03c 5da5 cfbc
000000c0: 9936 2fbd 44ca 343c 5890 98bd b4cc 2cbe
000000d0: b3fe d7bd 453e 37bc 9c15 9fbc 56b0 273c
000000e0: e03d 5dbc dca1 ffbd 3a8d adbd dca4 0dbe
000000f0: 3c64 ebbd 106a 32bd 04d4 d9bd 1c43 15be
00000100: 6bbc 42be 90cb 4abe 3861 1ebe ec1f 4bbe
00000110: 09b8 23be 0d9d 1dbe 6d50 76be 3331 51be
00000120: 5583 25be 2061 2bbe f2cb b4bd 8d71 c93b
00000130: 6240 42bc 35b2 ca3d 7fe2 b8bd 209e 0cbb
00000140: 3d45 e5bb 2249 cdbc 525b 6fbd 24c9 a5bd
00000150: e431 923c a96f bd3b 8c94 b03c b153 04be
00000160: a390 debd 8079 b6bd 4042 89bd a205 9ebd
00000170: c8a5 f9bc d31d 0d3d 70ae 80bd 8250 7cbd
00000180: 4344 d0bd d403 9ebd aefb 1cbd 003e 3fbd
00000190: 526d 043e 5739 44bd 160a 40bd 3077 e0bc
000001a0: 6af3 9fbd f077 ec3c 049b 1cbd 13e5 97bc
000001b0: b59a 45bd 7d8e 0d3d 3bbc bbbd a946 8a3c
000001c0: d86d e83c 7a5a 0cbc e66e 123d 051f 453a
000001d0: 15a5 663d 5ff6 bf3d 1173 5d3d 791f 073c
000001e0: 1a82 a73d dcd1 713d a6f9 b63d 7d4c d83d
000001f0: 11fb b03d c35f b73b b98b aebd 79d4 99bd
00000200: 5522 e8bd 922b 98bd 00ba 9d3d 06a9 7dbb
00000210: 9146 d2bd bf58 0e3c 5af7 20bd cc71 5f3c
00000220: 0dd7 763d 0caa 363d c554 abbb 52c7 1b3d
00000230: 49c3 103d d11e a1bc fb8a b13d 6477 5f3d
00000240: 4a71 063b 7c6e 9e3c ad33 14be d658 db3d
00000250: 3fda 493d 3c92 c23d 46d4 b43d a778 3e3e
00000260: 83fa 093e b65e 90bc 8c91 943d a12a ef3c
00000270: 305a 3e3c efcb 40bd 6adf 373c 0fac a23d
00000280: cfdd 0e3c 36d8 963a abde 7cbd 1945 983d
00000290: 9e37 b83d c9d0 2e3d 0594 bc3c 05e2 acbb
000002a0: cbfd 6a3d af5b bb3d 2e24 b13b b454 15bc
000002b0: a33f 9cbd 8d96 a1bd 29b2 f53c b344 cbbd
000002c0: 71b6 aebd 139a 03bd d1f8 a1bc e9e3 dabc
000002d0: 298c f5bb cf08 25bb 5f11 0b3c a065 d5bb
000002e0: 4d55 4b3b f2ae 40bd d9d2 20bd 4431 abbc
000002f0: 6994 983d 9931 6c3d 2b6b 3abc ec9e 9cbd
00000300: c273 dfbc 12bf c0bc 5a5c 17bd 7146 83bc
00000310: b7c8 a8bc e4f9 b1bb 2da0 6fbd b1ff 76bb
00000320: 1abd 123d 623c a53d 383c 63bb 5ba7 b2bd
00000330: e079 29be f8ba d03b c861 b53d 8645 febc
00000340: 6fe8 b8bd a762 1bbe c586 92bd 7a48 90bd
00000350: f4b9 d23b 22f0 6cbd 8ee3 c4bd 0646 bcbb
00000360: fd33 b93c 1fa0 a2bd 9209 dd3b 6807 97bd
00000370: 713c 2ebd 7519 cbbd 85d0 ebbd 560b 263c
00000380: 111d a2bc 27a5 3b3d 5476 96bd d685 93bd
00000390: 5b21 89bd f292 79bd 6301 2bbd 3152 61bd
000003a0: 0cdd 58bd 6ebd 92bd d84b d4bd abde 043b
000003b0: c8f0 a23d df74 efbd 1ff1 03bd 81a6 b0bd
000003c0: 21dd b6bc bdf6 103d 2822 54bd 7f11 943d
000003d0: f46f 123e 1d4d 643c 4cc7 7c3c 990c 0a3d
000003e0: 325a 90bd edcd c23d 6f9f 563d a29b f73d
000003f0: b30f 71bd c195 d9bd f6ac 24bd 0c87 22bd
-0.033263464 -0.021035342 -0.014443026 0.04308519 0.009405307 -0.05284966 -0.008702829 -0.055268645
0.09811121 0.15157703 0.00848924 0.049507234 -0.005322156 0.10123681 0.21283358 0.03296006
0.0038895675 -0.04371879 -0.012356162 -0.053430684 -0.036375884 0.010167837 -0.006004561 -0.014837964
-0.050009105 0.05312591 0.025061496 0.0076843826 0.04044863 0.05301145 0.10187401 0.058078174
-0.02900373 0.06134857 0.12122671 0.07934208 0.07672906 0.05311335 -0.023428101 0.0707536
0.056391783 0.045600496 0.017641386 0.09557296 -0.029221188 0.12795202 0.027407227 -0.025347406
-0.042776678 0.011034552 -0.074494064 -0.16874963 -0.10546627 -0.01118428 -0.019419484 0.010234913
-0.013503522 -0.12482044 -0.084742025 -0.1383242 -0.114937276 -0.04355818 -0.10636142 -0.14576381
-0.19017188 -0.19804215 -0.15466774 -0.19836396 -0.15988173 -0.15391941 -0.24054118 -0.20428924
-0.1616338 -0.16736269 -0.08827962 0.0061475695 -0.01185617 0.098972715 -0.09027576 -0.0021456555
-0.0069967792 -0.025059287 -0.0584367 -0.08095005 0.017846055 0.005781133 0.021555208 -0.1292255
-0.10867431 -0.08909893 -0.06702089 -0.07715918 -0.030474558 0.03445227 -0.06283271 -0.061600216
-0.1016927 -0.07715574 -0.038325958 -0.046689987 0.12932327 -0.047906246 -0.04688462 -0.027400583
-0.078100994 0.028865784 -0.038233772 -0.018541848 -0.048243243 0.034559716 -0.091667615 0.016879397
0.02837269 -0.008566493 0.035750292 0.0007519576 0.05630978 0.093731634 0.054064814 0.00824725
0.08179112 0.059038028 0.089343354 0.10561464 0.08641637 0.0055961325 -0.08522744 -0.07511229
-0.11334673 -0.074301854 0.07701492 -0.0038705482 -0.10267366 0.008688151 -0.039298393 0.013637971
0.060263682 0.044595763 -0.005228611 0.038031884 0.03534249 -0.019668015 0.086690865 0.05455722
0.0020514303 0.019339792 -0.14472838 0.107103035 0.0492804 0.09500548 0.088295504 0.18600713
0.13474469 -0.017623287 0.07254323 0.029195132 0.011618182 -0.047069486 0.0112227 0.07942974
0.0087198755 0.0011508528 -0.06173579 0.07435054 0.08994983 0.04267958 0.0230198 -0.005275967
0.057370942 0.09148347 0.0054059243 -0.009114433 -0.07629325 -0.078900434 0.02999218 -0.09925213
-0.08530892 -0.03212936 -0.019771965 -0.026720004 -0.007493515 -0.0025182252 0.008488028 -0.006512359
0.0031026185 -0.04704184 -0.03926358 -0.020897515 0.07450182 0.057664488 -0.01137809 -0.076474994
-0.027276877 -0.02352861 -0.036953308 -0.0160248 -0.02060352 -0.0054314006 -0.058502365 -0.0037689025
0.035824873 0.08068158 -0.0034673344 -0.08723327 -0.16550398 0.0063699447 0.08856541 -0.03103901
-0.09028708 -0.15174352 -0.071546115 -0.07045074 0.0064308587 -0.057846196 -0.09613715 -0.005745652
0.022607798 -0.07940697 0.0067455256 -0.073744595 -0.04253811 -0.09916965 -0.11514381 0.010134539
-0.01978925 0.0458118 -0.07346788 -0.072032616 -0.06695815 -0.060931154 -0.04174937 -0.055010024
-0.05294518 -0.07165037 -0.103660285 0.0020274322 0.07956082 -0.11692213 -0.032212373 -0.08625508
-0.02232224 0.035391558 -0.051790386 0.072298996 0.14300519 0.013934401 0.015428375 0.03370342
-0.070484534 0.095119335 0.05239814 0.120902315 -0.058852863 -0.106242664 -0.04020401 -0.039679572

fc1.bias f4 [120]
00000000: 3b14 bd3d 45d9 753e 4cd3 3e3e 81f8 0bbd
00000010: 20d0 1b3c 3ed5 0cbe 7286 7e3e 4461 073d
00000020: f501 7f3e 002d ddbb 1b19 273e ba72 f43c
00000030: b60e 44bd 58aa a9bd 00f0 98bd cbee 01bc
00000040: 83df a1bd 8107 833d b9b1 9f3d 8665 433d
00000050: 3f89 bbbd a6fd 793e ac93 29be e80b c5bc
00000060: 26ba 12bd 1cbf 723c 7302 493d 1314 583d
00000070: 8372 da3c 6587 ac3d 7bde 3b3e 7937 4a3c
00000080: da03 4c3e 2b93 183c 99f6 f4bd 81eb 01bd
00000090: 4678 a33d dad7 ef3c a804 b83c d191 323c
000000a0: 2053 0ebc 543a cbbd 6025 813e 5674 c5bb
000000b0: 82bd 8cbd cf6c 593d fa20 f4bd c660 4abd
000000c0: becc 0e3e af62 f23d 92f2 e43d a735 70bc
000000d0: 3961 8ebd 5c9a 6cbd 2c69 7abe 7be5 98bd
000000e0: e480 44be b2b4 34be 0fd7 f0bd c13f 8e3c
000000f0: 8ad0 e73d 3654 e03c 3dd5 b5bc debf 94bb
00000100: d305 93be 97e2 fdbd 2bc6 c0bd e6b0 1a3e
00000110: c98d ad3d 00da 68bd dbca 97bd 68ae 2c3b
00000120: e2a2 e9bc 57e2 d6bd 7177 be3d 3293 313d
00000130: 85ae 733e b6e0 16bd 5316 14be fd69 153e
00000140: de08 7ebd 1561 833e 7958 113e 16a8 623e
00000150: 0534 303e 6466 cfbc 713e 59bd fa48 a93d
00000160: 3adb 813d 8fbe 0bbe 9ef0 2a3e 1dc1 d1bc
00000170: 32d8 ba3d ac70 143e 14af 313d 9227 6c3d
00000180: 5820 f0bc 801c 823e 8a57 fa3c 66bc 973e
00000190: d015 13bd ae2d 383e 8a34 7e3d cf7b 27be
000001a0: cbdb d4bb c358 583e c0cb fb3d 6531 583c
000001b0: c7ad 5f3e 9eaf 703e 6023 15bd eb63 16bc
000001c0: 51ff d03d 5622 a83d ac0c 68bd 3e33 16bd
000001d0: 9ef9 583c 3379 263e 43fd 323e 00fa fe3d
0.09232374 0.24008663 0.18635291 -0.03417254 0.00951007 -0.1375322 0.24855974 0.033051744
0.2490309 -0.006749749 0.1631817 0.029839862 -0.047865592 -0.082844436 -0.07467651 -0.007930468
-0.079039596 0.06397916 0.0779757 0.047704242 -0.09157037 0.24413165 -0.16560239 -0.024053529
-0.035822056 0.014816072 0.0490746 0.05275352 0.026665932 0.08424262 0.18346588 0.012342327
0.19923344 0.009312431 -0.11961097 -0.031718735 0.07981925 0.02927773 0.022463158 0.010899023
-0.008686811 -0.099232346 0.25223827 -0.006025831 -0.06872083 0.053082284 -0.11920352 -0.049408697
0.1394529 0.11835229 0.11179079 -0.014661229 -0.069521375 -0.057764396 -0.24454182 -0.07465645
-0.19189793 -0.17647055 -0.11759769 0.017364385 0.113190725 0.027383905 -0.022196406 -0.004539474
-0.2871538 -0.12396734 -0.094127975 0.15106544 0.08474309 -0.056848526 -0.074117385 0.0026349071
-0.028520051 -0.1049239 0.093001254 0.043353267 0.23797043 -0.036835395 -0.14461641 0.14591213
-0.062020175 0.25660005 0.14193906 0.22134432 0.17207344 -0.025317378 -0.053038064 0.08265872
0.06340642 -0.13646911 0.1669335 -0.025604779 0.09123267 0.14496106 0.043379858 0.057654925
-0.029312298 0.2541237 0.03055932 0.29635924 -0.035909474 0.17986175 0.062061824 -0.16355823
-0.006495928 0.2112761 0.122947216 0.01319537 0.21843635 0.23504493 -0.03641069 -0.009179096
0.10204948 0.08209674 -0.05665271 -0.036669962 0.013243107 0.16257171 0.17479424 0.124500275

fc2.weight f4 [84, 120]
00000000: 67b1 973d 511a cdbd cfc2 59bc 762c a93d
00000010: f85a 67bd 79d0 52bd 425d b93c 9ca0 623d
00000020: 7dc6 7fbd ae36 febd 25f5 a1bd cb8a 91bd
00000030: 09ea 24be 516b b5bd 4229 5a3e 537b e3bd
00000040: 68b8 d6bd d05b 51be b2d4 83bd 1266 953c
00000050: c5c9 58be 76ec 8c3a 8c20 b4bd 3f01 02bd
00000060: 2595 8ebd b04b 0ebd 2405 36bd 875f 303e
00000070: e9ba d23c eb30 423d 0705 b2bd 006e cc3d
00000080: c433 cf3d 8f68 883d 215a 4abe 8257 d9bd
00000090: b8da 27bd 88cd 433e 3059 92bd 98e0 2c3b
000000a0: 72a5 c03c 4161 1dbd a167 a4bd b183 ca3d
000000b0: e519 b73c 1095 353c 5ba9 d83c 65e0 4d3d
000000c0: c10c 023e e10b 823d 6099 05bd 807e 20bd
000000d0: 50c4 b63c d41b e73d 4e23 fbbd a782 18bd
000000e0: d0d4 1dbe 3449 4dbc 7ec9 77bd cfe2 b0bb
000000f0: 8e8f 55bd bad7 98bd 9ed5 b8bc 5bc6 a23d
00000100: 8bbd 133d ccca e8bd 9a5b 8d3d 688d e33c
00000110: 120a 29be 0d38 1e3d 731f eb3d 2f6f cdb8
00000120: e381 933d a538 9bbd e32d 13be d166 ab3d
00000130: 0bd5 f23d ae49 3d3c 80e2 573d 1284 ddbb
00000140: bee1 593e 1f06 7bbd eaf8 0bbd b30e 6c3d
00000150: 13b6 273e 5841 763d 9051 ef3d 01eb 073b
00000160: 5407 e7bd e05d 29bd c891 29be afc9 c4bc
00000170: 97ab 71bd 32cd b7bc f056 e0bd 64b0 d73d
00000180: 3418 1bbd 061d 343c 4ca1 45be 2df8 b4bd
00000190: 2533 aa3c 1228 813c 5784 5dbd 326c 133c
000001a0: f298 33bd 6ae6 33be 791b b1bd ba7b 663d
000001b0: a41e 71bd d154 093e 80fa e13d 0751 ebbd
000001c0: 94bf 07be 72dc c4bd 87cf 5b3d 2bf7 583d
000001d0: 2b61 d8bc 900d 2abd a4bf 06bc 544f 0cbd
000001e0: 711d 3dbd c1df bc3d 8899 5abd 7504 8e3d
000001f0: 8da9 543d 4ab5 643d ca0f 4dbd 09af 46bd
00000200: 358d a1bd 835c ec3d 1952 db3d 70ef 8c3a
00000210: aabf 24bd 800a d73c 40bb 133d c794 b0bd
00000220: 165c c33c ab76 99bd 9343 033d 3774 07be
00000230: d7a0 0dbd 0160 30bc 7e5d 5dbd 74e4 abbd
00000240: cdcb 703d 32ed a8bd 18e8 03be c480 80bd
00000250: cf1b 71bd f0b1 47bd 8313 533d 648f afbd
00000260: 21df 78bd 4765 1c3d e64e 263e e78c 17bd
00000270: a4dd 903d bde2 f53d 534c 72bd bc69 d5bd
00000280: e1d0 8a3d 5f79 ee3d 2309 e5bd 73d8 16be
00000290: ddfc 73bd d0e1 903d 628d 81bd c37a 65bd
000002a0: a1f0 06be 276d a2bd c7c8 903c 981e 07bd
000002b0: 0e5f c3bd a68c 203c 9b96 2dbc aead 1dbd
000002c0: bc53 c83d 6df1 7dbd 4401 4dbd d1c2 aabd
000002d0: 36aa 35bd 98b9 8a3d fc0d 44bd b757 bbbd
000002e0: 5148 34bc 7325 9c3d cc98 053e 85b7 c23d
000002f0: 86a5 773d ee3f 8a3d 5718 8f3d 532c 64bd
00000300: 4608 debd f64e 46bd 7a62 1fbc 888d a0bd
00000310: cb1d f33b 5314 e9bd a85a 87bd 68d3 653d
00000320: b606 fdbd 622f c6bd 433e 3e3e c61d 53bd
00000330: dd33 743d e7af bebd 563a 2abc 48f0 9ebd
00000340: b1f4 bbbd fedf 123e 1747 423d bb3a c6bc
00000350: fd26 acbd 5e63 253d 63b8 75bc 2270 17bd
00000360: 0dd2 a83d c9de 23bd 7a00 de3d d98a 483d
00000370: b001 17be a049 f939 ad64 6abc 8863 c7bd
00000380: c3aa 823c 4f2c f53c d7b4 e9bd e162 823d
00000390: 1c18 483d ef58 9abd b328 05bd a543 7ebd
000003a0: 5609 11bd f04d 1ebd 2d79 c6bc be5a b73d
000003b0: 0b15 063d 8ecf 8abd a273 b4bd fe04 a9bc
000003c0: 4535 b33d 5f03 d5bd 4b52 bf3d add4 dc3c
000003d0: 2822 033d 1e1a 67bd 5698 13bd 39cd aa3d
000003e0: 9aa2 bb3d aedd dc3c cb54 d03d 4230 fabc
000003f0: 0d31 b8bd 28c1 613e a024 ec3c 6d66 e73d
0.07406884 -0.10014785 -0.013291075 0.082604334 -0.05648324 -0.051468346 0.022627477 0.05532895
-0.062445153 -0.12412773 -0.07908086 -0.07106551 -0.16104902 -0.088583596 0.21304801 -0.111075066
-0.104843915 -0.2044518 -0.06437053 0.018237147 -0.21170719 0.0010751623 -0.0879527 -0.03173947
-0.06962041 -0.03474015 -0.044438496 0.17223941 0.025723891 0.047409933 -0.08692365 0.09981918
0.101172954 0.06660568 -0.19760944 -0.10612394 -0.04098007 0.19121373 -0.071459174 0.0026378985
0.02351639 -0.038422827 -0.08027578 0.098883994 0.022351215 0.011082903 0.026447942 0.050262827
0.12700178 0.06349922 -0.032616973 -0.03918314 0.022310406 0.11284605 -0.12262593 -0.037233975
-0.15413213 -0.01252966 -0.060494892 -0.0053981314 -0.052138858 -0.074630216 -0.022562798 0.079479896
0.036069434 -0.113668054 0.06902237 0.027777389 -0.16507748 0.038627673 0.11480608 -9.795871e-05
0.07202508 -0.075791635 -0.14372973 0.0836922 0.11857041 0.011553211 0.05270624 -0.006760129
0.2127752 -0.061285134 -0.03417293 0.057631206 0.1637805 0.06012091 0.11685479 0.0020739438
-0.112806946 -0.04134929 -0.16559517 -0.024021951 -0.05900153 -0.022436712 -0.10954082 0.10531691
-0.03786488 0.010993248 -0.19299811 -0.08836398 0.02077634 0.015766177 -0.054081287 0.008997964
-0.043847032 -0.17568365 -0.08647818 0.05627034 -0.05886711 0.13411261 0.11034107 -0.11490064
-0.13256675 -0.09612359 0.05366471 0.052970093 -0.02641352 -0.04151684 -0.008224402 -0.03425534
-0.046170656 0.09222365 -0.053369075 0.06934444 0.05191951 0.055836953 -0.050063886 -0.04850677
-0.07888261 0.11541083 0.10709018 0.001075251 -0.040221848 0.026250124 0.036067247 -0.08622127
0.023847621 -0.07493337 0.032046866 -0.13227926 -0.034577217 -0.010765077 -0.05404424 -0.08393183
0.05878811 -0.082483664 -0.12881505 -0.0627456 -0.05886441 -0.04875368 0.05153228 -0.085722715
-0.060759667 0.038182523 0.16241035 -0.03699961 0.070735246 0.120061375 -0.05915482 -0.10420558
0.06778122 0.116442434 -0.11183383 -0.14731006 -0.05956732 0.0707432 -0.06325795 -0.056025278
-0.1317773 -0.079309754 0.017673863 -0.03298816 -0.095396146 0.009799158 -0.010594989 -0.038495712
0.09781596 -0.06199782 -0.050050035 -0.083379395 -0.04435178 0.067736804 -0.0478649 -0.0914759
-0.01100357 0.0762433 0.13046569 0.0950766 0.06046059 0.06750475 0.06987064 -0.055706333
-0.10841422 -0.048415147 -0.0097280685 -0.07839495 0.007419323 -0.1138083 -0.06609088 0.056109816
-0.12354796 -0.09677006 0.18578438 -0.051542066 0.059619773 -0.093108945 -0.010389885 -0.07760674
-0.091775306 0.14343259 0.047431078 -0.024197927 -0.08405874 0.040377967 -0.0149975745 -0.036972173
0.08243189 -0.040007386 0.10839935 0.04896054 -0.14746737 0.00047547836 -0.01430623 -0.09735781
0.015950566 0.029928355 -0.114114456 0.06366516 0.048851117 -0.07536494 -0.032509517 -0.06207623
-0.035409294 -0.038648546 -0.024227703 0.089528546 0.032734912 -0.06777869 -0.08811118 -0.020632263
0.08750395 -0.104010336 0.09341868 0.02695688 0.032014996 -0.05642139 -0.03603395 0.08339924
0.09161873 0.026961174 0.10172423 -0.03054059 -0.08993731 0.2204634 0.028826058 0.11298833

fc2.bias f4 [84]
00000000: 0c87 d73d fef9 4dbc 8254 bdbc e422 c3bd
00000010: a97d 913d 3a75 e83d 555d e7bd a7e8 b83e
00000020: 13d7 173e 3d3f f03d 1370 58bd e1d1 3abd
00000030: 702c a73e b0ae ba3c 1ad2 833a 3cdf 25bd
00000040: 37d1 10bc 32f9 32bd 2703 6bbd 2622 91bd
00000050: 4a11 2d3e 18c9 073e d87d 913e a674 b7bd
00000060: 4c99 1b3e 07b7 3b3d f820 553e 7551 ba3b
00000070: 39bb 2abc 3dc6 783d c9c3 423e 60ff bf3e
00000080: ccd5 083e 1c68 8b3e 491c 3b3e db78 d93e
00000090: 1d8b 6b3e 6641 743e b28f 4fbd a868 243e
000000a0: 72bf 5e3d 88b5 e73e 8365 f3bc 797c 233e
000000b0: b669 ce3e b353 d73c 3763 b03e c2ee 0b3e
000000c0: 6e3e 723e 6d2e 03be b470 153f 0d94 6b3c
000000d0: 9402 0c3e 3104 513c 9475 533c 28e9 9e3e
000000e0: d0f4 983e 7330 18bd 6020 373f 6047 933d
000000f0: 8595 423e f152 e53e 284c c8bd a019 ff3e
00000100: c359 d6bc 0b94 54bd a4a8 8bbd aac3 a03e
00000110: 229e d13d 5ec5 d23e f932 d33d b7db 213d
00000120: 8357 143d f2bc 033d 7be7 4ebd aea2 42bc
00000130: 4148 e53c ac90 15be 46e7 9a3e 6e8b 70bd
00000140: 0041 abbc 29ea 873d 933d 8f3d 638c ca3d
0.10523805 -0.01257181 -0.023111586 -0.09528139 0.07104046 0.11350484 -0.112970985 0.36115
0.14828138 0.11730812 -0.052841257 -0.045610312 0.3265109 0.022788376 0.0010057122 -0.040496096
-0.008838943 -0.043694682 -0.057376053 -0.070865914 0.16901127 0.13260305 0.28416324 -0.08957796
0.15195197 0.045828845 0.20813358 0.00568598 -0.010420614 0.06073593 0.19019999 0.37499523
0.13362807 0.27227867 0.18272509 0.42475018 0.23002286 0.23853073 -0.050674148 0.16055548
0.054381795 0.45255685 -0.02971149 0.15965451 0.40315026 0.026285028 0.34450695 0.13665298
0.23656628 -0.12810679 0.58375096 0.01437856 0.13672858 0.012757347 0.012906451 0.3103726
0.29874277 -0.03715558 0.71533775 0.07191348 0.1900235 0.44789842 -0.09780151 0.49824238
-0.026165849 -0.051898997 -0.06819275 0.3139928 0.102352396 0.41166204 0.10312457 0.039516177
0.03621627 0.032162614 -0.050513726 -0.011879606 0.027988555 -0.14605969 0.30254573 -0.05872672
-0.020905018 0.066364594 0.06994166 0.09890058

fc3.weight f4 [10, 84]
00000000: 0e21 27be 5215 c2bd 3812 813e 6860 05bd
00000010: ac82 1d3e 64b8 d43d 3d75 4e3d 628c 11be
00000020: a3db 703c 12f7 a03d a282 21be ccce 24bd
00000030: b811 2ebe 6a18 a83a 720c 6a3e cc2b c83b
00000040: 9755 533d 20d5 d53d 8a1a fabd 7603 da3c
00000050: b83f 073e 5fdf e63d 901c 0dbe a6bc c63c
00000060: a4ca f13d def7 c1bd 412e 683e cbe6 41bd
00000070: dad6 e63c e792 3f3e fd5a 4dbe 23ac 7e3e
00000080: bb9f 443d ec78 6d3e 19a5 23be 3f00 1f3e
00000090: d918 063e 5638 78bd 6147 66bd aaaf 6a3e
000000a0: aa93 273e 8c4b 703e 01df 2b3d b641 9bbc
000000b0: 0f21 73bd 07a9 083e 3848 7a3e 7a9f d6bd
000000c0: 67b6 f5bd 6bff 0e3e 15b2 343e adc2 3ebe
000000d0: 68db cb3d e9ab be3c e82b 6dbd c69e b13d
000000e0: efae 223e 8bcf cdbd 8032 23be 6605 653d
000000f0: 39bb 7c3d ebc0 36be da91 233e 3bc3 67be
00000100: 239d 8dbb 6ef4 193d 34f5 0c3e 9004 6cbe
00000110: 0393 04be 8ded 5ebc 1bc6 043e c47c cf3b
00000120: 0a98 113e 09b6 25be ca00 013e f880 213e
00000130: bf3c 1e3e 68ff 583d fff7 c0be f1a4 18bc
00000140: af52 843d 59df 80bd e449 543e 0f6a c7bd
00000150: 34f2 7f3e 8475 2c3e 3d51 243d 8b98 14be
00000160: 1054 0a3d 1151 e63d 4559 7d3d 3032 85be
00000170: bed5 80bd bc49 c93d 0151 503d 13fc f83c
00000180: f1ff 71be 4ed0 823e 788e 813e f158 843d
00000190: 5b9c 4dbd 7f40 153e 9112 293d 563e ce3d
000001a0: 64c2 af3e 8f97 883d d258 e4bc 0175 983c
000001b0: c127 d83e ae1a 773e ee94 48be a23d 9e3d
000001c0: 7947 313e 78f1 1e3e 8b0b 293d 315d 383e
000001d0: 9c63 bbbd c318 4cbe ac34 993d 0766 7cbd
000001e0: 97c9 44be d57c 2fbe ebba 123e ba5d ffbd
000001f0: fba3 10be 2a8e 6d3c 0f6c 3dbd 4420 1b3d
00000200: 96db 8cbe 911f 34bc a8ee 1bbd 1b2c 063e
00000210: a337 063e 1862 c7bc 0cea 21be 8657 163e
00000220: 6b11 643e 9020 c43d 8a53 1f3e 558f 34be
00000230: 684d d53d 1ec5 fdbc 55d9 b3be 3910 8a3e
00000240: 3530 2e3c 4101 57be d059 f7bd 802f 8abe
00000250: 7edd 9fbd 84c0 7c3c b0f0 6ebb 7498 05be
00000260: ed01 44bc 168f b1be 3123 ef3d a23a b53d
00000270: 92cc aebe 2473 323e 6610 0b3d 621d 4c3d
00000280: 0ef2 1b3d 2800 963b dc03 013c 5740 163e
00000290: 70dd fcbc e43a 4c3c d9e8 7abe c3d9 4a3e
000002a0: d3e3 d73d d12f 30be 59a0 863d 91ce d3bc
000002b0: e12a 533e 46e9 44be 9c15 953d d430 7b3c
000002c0: 623f 2b3c 561e fb3d bc3f 2a3e c9f2 183e
000002d0: 70db ef3d 197a abbc eaa8 e8bd 3e3c 763d
000002e0: ceb3 e4ba 6689 73bd c81a 1f3e b211 773d
000002f0: dc54 0abe cdbe 9f3d 4bd0 a53d 3ba0 bfbd
00000300: 0537 9cbc fa41 5e3d 3f49 08bd 2924 f43d
00000310: 43a1 0bbe 4d1e 87be b3f3 a8bd bb07 483b
00000320: cc08 42be cfc7 7a3e d665 553d e331 393e
00000330: b9fb 493c 1e2f 3b3c 5880 e5bd 926e b5bd
00000340: 6eb5 7d3e 749f 3cbd 2fbb b23d 77d2 473d
00000350: 4726 973e cbb2 1fbe bad1 573d 8ace 04be
00000360: 0a97 6f3c dff3 ec3c 5cba 2e3e 8baf 06be
00000370: ee7f d0bd ef6c a7bd b25c 503e 6a19 73bd
00000380: 3422 4abe 54f1 20be 1621 e73d fb77 abbd
00000390: 2c2b 14be ef75 fe3d 4ae7 373e c1c6 913c
000003a0: 315b 81bd f242 ccbd 9e47 d93d 3585 453e
000003b0: 9314 f6bc 9ff9 8b3e 3c0c d2bb 8d78 b73c
000003c0: 6536 413e d734 5c3d aedd e23d 9925 20bd
000003d0: 6dfe afbd 8160 263e 3004 033e fdc6 bdbb
000003e0: 56b6 34bd 4c6e 29bd 781d e43c 7d1d 0a3d
000003f0: 4e1f 34bd 2964 8bbb eaab eb3c 46cf b3bd
-0.16321203 -0.09476723 0.25209212 -0.032562643 0.15381879 0.10386732 0.050404776 -0.14213708
0.014700803 0.07859625 -0.15772489 -0.04023628 -0.16998947 0.0012824659 0.2285631 0.0061087366
0.051595297 0.10441041 -0.12212093 0.026612978 0.132079 0.112730734 -0.13780427 0.024259876
0.11806229 -0.09471105 0.22673894 -0.047339242 0.028178621 0.18708383 -0.2005424 0.24870352
0.048003893 0.2319066 -0.15980949 0.15527438 0.13095416 -0.0606006 -0.056220416 0.22918573
0.16364923 0.23466319 0.04196072 -0.018952232 -0.0593577 0.13345729 0.24441612 -0.104796365
-0.11997681 0.13964622 0.17646058 -0.1862895 0.09953958 0.023275333 -0.0579032 0.08672862
0.15887044 -0.10049351 -0.15937233 0.05591335 0.061701987 -0.1784703 0.15973607 -0.22633068
-0.0043217107 0.037586622 0.13765413 -0.23048615 -0.12946706 -0.013606441 0.12966196 0.006332012
0.14218155 -0.16182722 0.12597957 0.15771854 0.1545286 0.05297795 -0.37689206 -0.009316669
0.06461083 -0.062926 0.20731312 -0.09737026 0.24994737 0.16841704 0.040116537 -0.14511316
0.033771574 0.11245931 0.061852712 -0.26014853 -0.06290768 0.09828517 0.0508585 0.030393636
-0.2363279 0.2554955 0.25304008 0.06462277 -0.05019794 0.14575385 0.041277472 0.100704834
0.34327996 0.066695325 -0.027874384 0.01861048 0.4221783 0.24131271 -0.19588062 0.07726599
0.17312421 0.155218 0.041270774 0.180043 -0.09149858 -0.19931321 0.074807495 -0.06162074
-0.19217525 -0.17137463 0.14329116 -0.12469049 -0.14125054 0.014499227 -0.04624563 0.037872568
-0.2751128 -0.010993854 -0.038069397 0.13102762 0.13107161 -0.024338767 -0.15811938 0.14681825
0.2227227 0.09576523 0.15559211 -0.17632802 0.10415155 -0.030977782 -0.3512675 0.26965502
0.010631611 -0.20996572 -0.12077677 -0.26989365 -0.07805918 0.015426759 -0.003645938 -0.13046438
-0.01196335 -0.34679478 0.11676634 0.08849074 -0.3414045 0.17426735 0.033951186 0.04983271
0.03807264 0.0045776553 0.007874455 0.14672981 -0.030867308 0.0124652125 -0.24502887 0.19809632
0.10541501 -0.1720574 0.06573553 -0.025855334 0.20621826 -0.19229612 0.07279512 0.015331466
0.010452123 0.122616455 0.16625875 0.14936365 0.11711776 -0.020932244 -0.11360343 0.060116045
-0.0017448606 -0.059457205 0.1553756 0.06031961 -0.13508934 0.07800064 0.08096369 -0.093567334
-0.019069204 0.05426214 -0.033272978 0.119209595 -0.13635735 -0.26390305 -0.08249607 0.0030522186
-0.18948668 0.24490283 0.05209907 0.18085437 0.012328082 0.011424808 -0.1120612 -0.0885898
0.24776241 -0.046050504 0.08727109 0.0487847 0.2952139 -0.15595548 0.052690245 -0.12969413
0.014623413 0.02892488 0.17063278 -0.13152902 -0.10180651 -0.08175074 0.2034786 -0.05935041
-0.1973961 -0.1571706 0.112856075 -0.08372494 -0.14469594 0.12424838 0.17959324 0.017794969
-0.063162215 -0.09973706 0.10609363 0.19289096 -0.030039107 0.27338883 -0.00641015 0.02239635
0.18868406 0.05376133 0.11077438 -0.039098356 -0.0859345 0.16247751 0.12794566 -0.0057915435
-0.0441192 -0.041364953 0.027846083 0.03371953 -0.043975167 -0.0042538834 0.028768498 -0.08779769

fc3.bias f4 [10]
00000000: 2909 88be e17d 30bf 961f 9dbd 9aa9 c53e
00000010: a99d 4a3f 67f2 3ebe 68f6 d53d fb31 c1be
00000020: 0d0a 033f b248 43be
-0.2656949 -0.68942076 -0.0767204 0.38605958 0.7914682 -0.18647157 0.10447389 -0.37733445
0.5118721 -0.190707
