cifar10_51.pth (torch, 251179 bytes, 10 tensors)

conv1.weight f4 [6, 3, 5, 5]
0	0x3d863f9e	0.06555103
1	0xbda6d4ff	-0.081460945
2	0x3e33f180	0.17572594
3	0xbd9401ae	-0.07226883
4	0xbd5c6b95	-0.053813536
5	0x3d2abda9	0.04168478
6	0x3eaf1eca	0.34203178
7	0x3ec201bb	0.37891945
8	0x3d9c2d3f	0.076258175
9	0xbd88761c	-0.066631526
10	0xbe19401f	-0.14965867
11	0xbe12e263	-0.14344172
12	0xbd85af33	-0.06527557
13	0xbd5fe4f3	-0.054661702
14	0xbd947352	-0.07248558
15	0xbd8eba24	-0.06969097
16	0xbe774490	-0.24147248
17	0xbe265a09	-0.16245283
18	0xbded7555	-0.11594645
19	0x3dbc9dcf	0.09209787
20	0x3d9ee31f	0.07758164
21	0xbd92dd26	-0.07171087
22	0xbe4b3cb0	-0.19847369
23	0xbc9daa72	-0.019246314
24	0xbd32c14f	-0.043641385
25	0x3dcff5cc	0.10154304
26	0xbceb5569	-0.02872725
27	0x3e1c9f9e	0.15295264
28	0x3e3023d3	0.17201166
29	0x3dd13c59	0.102165885
30	0x3e0f34e9	0.13985027
31	0x3e67aa74	0.22623616
32	0x3efd60b1	0.49487832
33	0x3e906f84	0.2821008
34	0x3d4b6eb6	0.04966613
35	0xbbc44f5b	-0.005990905
36	0xbb988752	-0.0046548033
37	0x3ce4bdfc	0.027922623
38	0x3cd0a17f	0.025467632
39	0x3d4e6ee0	0.050398707
40	0xbda8ab58	-0.08235806
41	0xbe7ea7e8	-0.24868739
42	0xbea537ae	-0.32269043
43	0xbd7c9554	-0.061665848
44	0x3da36483	0.079781555
45	0xbdd0d7c1	-0.10197402
46	0xbe6e598c	-0.23276347
47	0xbe6289d9	-0.22122897
48	0xbe19e09e	-0.15027091
49	0x3df41a76	0.119191095
50	0xbbd089bf	-0.006364077
51	0xbde4489f	-0.11146664
52	0x3b8c1dce	0.004276014
53	0xbe3dabd4	-0.18522578
54	0xbb41d481	-0.0029576125
55	0x3e2ed8ef	0.17074941
56	0x3e5fa071	0.21838547
57	0x3e79bb8f	0.24387954
58	0x3e4142d7	0.18873154
59	0xbc94281b	-0.01808553
60	0xbd654545	-0.055974264
61	0x3db9b016	0.09066789
62	0x3def456e	0.116831645
63	0x3d052df5	0.03251453
64	0xbd9320d7	-0.07183998
65	0x3c804cfd	0.01566171
66	0xbcabb996	-0.020962518
67	0xbe2254b6	-0.15852627
68	0xbdfebcf5	-0.124383844
69	0xbc227172	-0.009914743
70	0xbab58771	-0.0013849569
71	0xbd622590	-0.055211604
72	0xbe5cf700	-0.21578598
73	0xbca0cfae	-0.01963028
74	0xbd5ca41f	-0.053867456
75	0x3e32beb7	0.17455564
76	0xbd8d1f9a	-0.06890793
77	0xbdf128ed	-0.11775384
78	0x3e1d97e7	0.15389977
79	0x3df9a3ae	0.121894225
80	0x3de8a970	0.11360443
81	0xbea9f5aa	-0.3319524
82	0xbc5917cf	-0.013250305
83	0x3ded304f	0.1158148
84	0x3e3cbd1c	0.18431515
85	0x3d77526f	0.06038135
86	0xbee572f0	-0.44814253
87	0xbde40c38	-0.11135143
88	0x3ecf9cfa	0.4054945
89	0x3e323bd8	0.17405641
90	0x3df35de6	0.11883144
91	0xbeb377a2	-0.3505221
92	0x3c051b36	0.008124163
93	0x3eb7c06e	0.35889
94	0x3b6fead5	0.0036608477
95	0x3ce8780a	0.028377552
96	0xbdd65cb7	-0.10466903
97	0x3dcbb0d1	0.099458344
98	0x3e2d33a1	0.16914226
99	0xbd97d681	-0.0741396
100	0xbd4e6801	-0.050392155
101	0xbe3431dd	-0.17597146
102	0xbe005979	-0.12534131
103	0xbde4da89	-0.11174495
104	0x3d971727	0.07377463
105	0xbd8be4e8	-0.0683077
106	0xbebcf45f	-0.3690519
107	0xbda2d8a2	-0.07951476
108	0x3e3fb829	0.18722595
109	0x3deba89c	0.11506769
110	0xbd5851a1	-0.052812222
111	0xbf026382	-0.50933087
112	0xbe49ac3d	-0.1969461
113	0x3ed673a2	0.41885096
114	0x3e23ec68	0.1600815
115	0x3e24355f	0.16035984
116	0xbefc21ae	-0.49244446
117	0x3d3ab3d0	0.04558164
118	0x3ed94de1	0.4244223
119	0x3ca62425	0.020280907
120	0x3e3cf75a	0.18453732
121	0xbe88d45e	-0.26724523
122	0xbce4630c	-0.02787926
123	0x3e3c6ad4	0.18400127
124	0xbc994a10	-0.018712074
125	0x3af44dde	0.0018638929
126	0xbe2a0ef5	-0.16607268
127	0xbe214201	-0.15747835
128	0xbba897c3	-0.0051450445
129	0x3e193973	0.14963321
130	0xbb707674	-0.0036691697
131	0xbed60b69	-0.4180558
132	0xbded5145	-0.115877666
133	0x3ebb7522	0.36612803
134	0x3e3d3bd3	0.18479852
135	0xbb9a1a87	-0.0047028693
136	0xbecb3e3a	-0.39695913
137	0xbda5f1c7	-0.08102756
138	0x3ed63c1e	0.4184274
139	0x3e1c7574	0.1527918
140	0x3e1dfe10	0.15428948
141	0xbef6c4fd	-0.48197165
142	0x3c99f84e	0.018795159
143	0x3ed0c2e2	0.40773684
144	0xba8680ac	-0.0010261736
145	0x3e0c0378	0.13673198
146	0xbe1f314a	-0.15546146
147	0x3d63b5e8	0.0555934
148	0x3e62666d	0.22109385
149	0x3d19f892	0.03759057
150	0xbdfa3d74	-0.122187525
151	0xbc17fd86	-0.009276753
152	0xbe2d8bbf	-0.1694784
153	0xbdf9eb8a	-0.12203129
154	0x3dbcbd93	0.09215846
155	0x3cc99567	0.024607373
156	0xbde77b26	-0.113027856
157	0x3cb34be4	0.021886773
158	0x3d509ba4	0.05092968
159	0xbcb7f073	-0.022453522
160	0xbe119e05	-0.14220436
161	0x3d16260d	0.03665738
162	0x3c504548	0.01271183
163	0x3cc52bd2	0.024068747
164	0x3d6985f2	0.057012506
165	0x3da80551	0.08204139
166	0xbd4bb5f1	-0.04973406
167	0x3d2fb884	0.042900577
168	0x3d958a53	0.07301774
169	0x3df09e10	0.11748898
170	0x3be2de1f	0.0069234516
171	0x3dfce430	0.12348211
172	0x3d36a486	0.044590496
173	0x3df5c531	0.12000502
174	0x3e141a9c	0.14463276
175	0xbe8528f1	-0.26007798
176	0xbdeef660	-0.11668086
177	0x3c5675c6	0.013089603
178	0x3d5cd358	0.05391249
179	0xbd921aa3	-0.07133987
180	0xbe800810	-0.2500615
181	0xbe06f094	-0.13177711
182	0xbe211909	-0.15732206
183	0xbd0f6317	-0.03500661
184	0x3cc1c40b	0.02365305
185	0xbd69c2cc	-0.05707054
186	0xbe2ddb62	-0.16978219
187	0xbe0b5a94	-0.13608772
188	0xbd2a9555	-0.04164632
189	0x3d747cc4	0.0596893
190	0xbda8828a	-0.08228023
191	0xbe3e5766	-0.18588027
192	0xbde565d4	-0.11201063
193	0x3da83a0e	0.08214198
194	0xbe2c0214	-0.16797668
195	0xbe3b9efd	-0.18322368
196	0xbe027588	-0.12740147
197	0xbe0153e8	-0.12629664
198	0xbdb0603f	-0.086121075
199	0xbd723576	-0.059133016
200	0x3d469a2b	0.04848687
201	0xbd85fb74	-0.065421015
202	0x3e569540	0.20955372
203	0x3eb19402	0.34683233
204	0x3e7daa68	0.24772036
205	0x3d05c112	0.03265483
206	0x3d6295e4	0.055318728
207	0x3dbeebc0	0.093223095
208	0x3ea86f15	0.3289725
209	0x3ea253fe	0.31704706
210	0xbc9a50cc	-0.018837355
211	0x3d342865	0.043983836
212	0x3e8eba31	0.27876428
213	0x3e941a70	0.2892642
214	0x3e817dcf	0.25291297
215	0xbd008c8d	-0.03138404
216	0x3e1eeb47	0.15519439
217	0x3dca649a	0.098824695
218	0x3df14734	0.11781159
219	0x3e5a8f32	0.21343687
220	0x3e233040	0.15936375
221	0x3dc41eb3	0.09576168
222	0x3e1ff267	0.15619813
223	0x3e3bc17a	0.18335524
224	0xbbc31363	-0.005953239
225	0xbe45487f	-0.19265936
226	0xbe807c1c	-0.25094688
227	0xbdbb1f20	-0.09136796
228	0xbe745b01	-0.2386284
229	0xbd8c6cb6	-0.068566725
230	0xbe3bab2e	-0.18327019
231	0xbdea923f	-0.114536755
232	0xbdb4f50b	-0.08835801
233	0xbd8b0886	-0.06788735
234	0xbe02d658	-0.12777078
235	0xbe882006	-0.26586932
236	0xbe416624	-0.1888662
237	0xbe3e92d9	-0.18610705
238	0xbe1f2068	-0.15539706
239	0xbe6257e2	-0.22103837
240	0xbe825cd8	-0.2546146
241	0xbe80b666	-0.2513916
242	0xbe89b942	-0.26899153
243	0xbe2bb0de	-0.16766688
244	0xbe2e0fea	-0.16998258
245	0xbe3a1d9c	-0.18175358
246	0xbe0b7a07	-0.13620768
247	0xbd8547c5	-0.065078296
248	0xbd2186fb	-0.039435368
249	0x3d1b34e3	0.037892234
250	0x3dc5faff	0.09667014
251	0xbd289568	-0.04115811
252	0xbca12ad9	-0.019673752
253	0xbd82e708	-0.06391722
254	0xbdfe05b4	-0.124034315
255	0xbc60378c	-0.013685118

conv1.bias f4 [6]
0	0xbeaea151	-0.3410745
1	0xbe876a36	-0.2644822
2	0x3e2ceaff	0.16886519
3	0x3ee77787	0.4520838
4	0xbe25c1e8	-0.1618725
5	0xbebc54f3	-0.3678356

conv2.weight f4 [16, 6, 5, 5]
0	0x3e05e15c	0.13074249
1	0x3d7d1c85	0.061794776
2	0x3dcd95b6	0.10038321
3	0x3dce0e05	0.10061268
4	0xbc89aac0	-0.016805053
5	0x3d0fd03c	0.035110697
6	0xbd407652	-0.04698784
7	0xbd93de1e	-0.072201
8	0xbe105368	-0.14094317
9	0x3cf1e175	0.029526452
10	0xbdda3a22	-0.10655619
11	0xbdfb6407	-0.12274938
12	0x3d4455a6	0.047933243
13	0xbd5736f8	-0.052542657
14	0xbdb4b2aa	-0.0882314
15	0xbd9469c9	-0.072467394
16	0xbd9b9a28	-0.07597762
17	0xbce5495e	-0.027989086
18	0xbd67bfc5	-0.05657937
19	0xbe13f38c	-0.14448375
20	0xbdfaa1d3	-0.12237897
21	0x3db1d72f	0.08683621
22	0x3dac5599	0.08414764
23	0x3d994edf	0.074857466
24	0xbcf0ff17	-0.029418511
25	0x3ce1257a	0.02748369
26	0x3cce3db7	0.025175912
27	0x3da68a02	0.08131792
28	0xbb118482	-0.0022204225
29	0x3e804111	0.25049642
30	0x3c85673b	0.016284576
31	0xbda70bef	-0.08156573
32	0xbd5f0426	-0.054447316
33	0x3d8e4dbd	0.06948421
34	0x3e12856d	0.1430871
35	0x3dfa7070	0.12228477
36	0x3cd260ab	0.02568086
37	0xbd656c20	-0.05601132
38	0xbd37b1d5	-0.04484733
39	0x3d467ae8	0.048457056
40	0x3e00f6bf	0.12594126
41	0xbcdbbb3e	-0.026822682
42	0xbde42e63	-0.1114166
43	0xbd7031eb	-0.058641355
44	0xbd2ea238	-0.042635173
45	0x3dcb48b0	0.099259734
46	0xbdbf8121	-0.09350801
47	0xbdd5c7bc	-0.10438487
48	0xbe0ce173	-0.13757877
49	0xbe119617	-0.14217411
50	0x3d3ccdd3	0.046094727
51	0x3d81c159	0.06335706
52	0xbcd1c919	-0.025608586
53	0x3dd60cf9	0.10451693
54	0x3e1c73e2	0.15278581
55	0xbd675595	-0.0564781
56	0xbdd219ef	-0.10258853
57	0xbd19f9fc	-0.03759192
58	0x3d92deba	0.07171388
59	0x3d7e51f4	0.062089875
60	0xbe58e9d4	-0.21182948
61	0xbd476342	-0.048678644
62	0xbda06f72	-0.078337565
63	0xbd96b618	-0.073589504
64	0x3d36aa2c	0.044595882
65	0xbd06a5c8	-0.032872945
66	0xbe029ff3	-0.12756328
67	0x3d480798	0.048835367
68	0xbd0650c5	-0.03279187
69	0x3cc58fa7	0.02411635
70	0xbdaff179	-0.08590979
71	0x3ad6a58c	0.0016376241
72	0xbd42b76a	-0.0475382
73	0x3b83a7f4	0.0040178243
74	0xbd76d88d	-0.060265113
75	0xbdd6e94c	-0.104937166
76	0x3cccf509	0.025019186
77	0xbd8a5b79	-0.06755728
78	0x3d3f69da	0.046731807
79	0x3d1afe0c	0.037839934
80	0xbda6a77b	-0.08137413
81	0xbda963dd	-0.082710005
82	0x3d247c20	0.040157437
83	0x3b03deda	0.0020121844
84	0x3c9d5d67	0.019209577
85	0xbdd767f8	-0.10517877
86	0xbd1f6d72	-0.038922735
87	0xbb443592	-0.0029939157
88	0x3dbabce7	0.091180615
89	0x3d8ed15b	0.06973525
90	0xbc4997ea	-0.012304286
91	0x3dd251fc	0.102695435
92	0xba0a88de	-0.0005284677
93	0x3d2375e3	0.039907347
94	0xbc817196	-0.015801232
95	0xbc8c9bc2	-0.017164115
96	0xbc0e88cc	-0.008699607
97	0x3db31817	0.08744829
98	0x3dad7436	0.08469431
99	0x3d06d86d	0.032921243
100	0xbe68353f	-0.22676562
101	0xbe429998	-0.19003904
102	0xbe894b9b	-0.26815495
103	0xbe92734a	-0.28603584
104	0xbe8f1585	-0.27946106
105	0xbcb2ac0f	-0.02181056
106	0x3d0d7a37	0.03454038
107	0x3d00a144	0.031403795
108	0xbdf25a8f	-0.11833679
109	0xbe123dc7	-0.14281379
110	0x3df3e1e9	0.11908323
111	0x3df22017	0.11822527
112	0x3e096d2a	0.13420549
113	0x3e06d673	0.13167743
114	0x3ccf5fba	0.0253142
115	0x3e424306	0.1897088
116	0x3e008735	0.12551577
117	0x3e391ea1	0.1807809
118	0x3e2a456d	0.16628046
119	0x3d9876db	0.07444545
120	0x3d8a6520	0.06757569
121	0x3e32680e	0.17422506
122	0x3db6ae77	0.08919995
123	0x3c8c300d	0.017112756
124	0xbceffefe	-0.029296394
125	0xbd2717f1	-0.040794317
126	0x3d53cb6b	0.051707666
127	0x3d0403eb	0.0322303
128	0x3d32e3b8	0.0436742
129	0x3dd91112	0.10598959
130	0x3d183bee	0.03716653
131	0x3cff9c3f	0.031202434
132	0x3e0191c8	0.12653267
133	0x3dfc76ef	0.12327372
134	0x3e39c8cc	0.18143004
135	0xbd42f227	-0.047594216
136	0xbd6ab4c9	-0.057301316
137	0x3e0284b9	0.12745942
138	0x3dd5e030	0.10443151
139	0x3d918f67	0.0710743
140	0xbd483e47	-0.048887517
141	0x3dd4c282	0.10388662
142	0x3e14038c	0.14454478
143	0x3d930f3f	0.07180642
144	0x3d921bf4	0.07134238
145	0xbe19d788	-0.15023625
146	0xbde813a4	-0.11331871
147	0xbb73264a	-0.003710168
148	0xbe23b3a6	-0.15986499
149	0xbd3edf1f	-0.046599504
150	0xbd916e32	-0.07101096
151	0xbc4c356b	-0.012463908
152	0xbcb70e69	-0.022345738
153	0xbd76eee5	-0.06028642
154	0xbbfb86dc	-0.0076759886
155	0xbde0294a	-0.10945375
156	0xbd214cc6	-0.039379857
157	0xbe38d163	-0.18048625
158	0xbde09b21	-0.109670885
159	0xbdccf78b	-0.100081526
160	0xbdc5b130	-0.096529365
161	0x3d27a613	0.040929865
162	0xbd3d117f	-0.046159264
163	0xbe1dbec9	-0.1540481
164	0xbdb603b9	-0.08887429
165	0xbd5a267f	-0.05325937
166	0xbdbe1d49	-0.092829295
167	0xbdd74107	-0.1051045
168	0xbddf657f	-0.10908031
169	0xbdc00434	-0.09375802
170	0xbe0992a1	-0.1343484
171	0xbdc86d1a	-0.097864345
172	0xbd75e48a	-0.060032405
173	0xbe47c0a0	-0.19507074
174	0xbe478ab2	-0.19486502
175	0xbd034804	-0.0320511
176	0xbe13b68f	-0.1442511
177	0xbe2a1db3	-0.16612892
178	0xbd9cf9cd	-0.07664833
179	0x3e445ee5	0.19176824
180	0x3ba4f303	0.005033852
181	0xbdd331ca	-0.10312231
182	0xbe35f1ca	-0.17768016
183	0xbe226c11	-0.15861537
184	0x3e4124c3	0.1886168
185	0x3df2afc7	0.11849933
186	0xbcf9e255	-0.030503431
187	0xbe163283	-0.14667706
188	0xbe3f4236	-0.18677601
189	0x3e39057c	0.18068498
190	0x3e18c3b2	0.14918402
191	0x3cf2ae56	0.029624145
192	0xbcbf3b8b	-0.023343822
193	0xbe5f9a19	-0.21836127
194	0x3e8f696a	0.28010112
195	0x3dc5ea3b	0.096638165
196	0x3c92d0bd	0.0179218
197	0xbe015fbb	-0.12634175
198	0xbe8ef2c1	-0.27919582
199	0x3ead9aa8	0.33907056
200	0x3e137311	0.14399363
201	0x3ba904a9	0.0051580262
202	0xbe15cf74	-0.14629918
203	0xbd7904f1	-0.060795728
204	0xbcf5e3ad	-0.03001579
205	0x3e0ec6c1	0.13943006
206	0x3e205872	0.15658739
207	0xbd1dfd76	-0.038571797
208	0xbe2d313d	-0.16913314
209	0x3d2fe143	0.042939436
210	0x3de71013	0.11282363
211	0x3df53e05	0.1197472
212	0xbd62c936	-0.05536767
213	0xbd515000	-0.051101685
214	0xbd98e7ab	-0.07466062
215	0x3d33df4c	0.043914124
216	0x3e0dea3b	0.13858883
217	0xbd014403	-0.031559
218	0xbded0a66	-0.11574249
219	0x3c9bf314	0.019036807
220	0x3dc7d63c	0.09757659
221	0x3e0a37e9	0.1349789
222	0x3d813b12	0.06310095
223	0xbdbc040e	-0.09180461
224	0xbd51c159	-0.05120978
225	0x3d249a6e	0.040186338
226	0xbcdd2720	-0.026996195
227	0xbd9c2ab2	-0.07625331
228	0xbcf3b476	-0.029749136
229	0x3da8f47a	0.08249755
230	0xbd6e9f88	-0.05825761
231	0x3c79fbf1	0.015257821
232	0xbdbabc6c	-0.0911797
233	0xbd84edfc	-0.064907044
234	0x3caa1449	0.020761626
235	0x3d22f7bc	0.03978704
236	0xbd926c3f	-0.071495526
237	0x3cf9438c	0.030427717
238	0xbd212c05	-0.03934862
239	0x3d9a342f	0.075294845
240	0xbd99cc96	-0.07509725
241	0x3daaec08	0.08345801
242	0xbdd3d5dd	-0.103435256
243	0xbb25fa35	-0.0025326137
244	0xbd43ab4e	-0.04777079
245	0xbd2ca76e	-0.04215186
246	0xbd46371f	-0.04839241
247	0xbdc627e3	-0.096755765
248	0x3c1a9a12	0.009436147
249	0xbda054de	-0.07828687
250	0x3b2e3c92	0.0026586396
251	0xbe145db5	-0.14488871
252	0x3c3df7e0	0.011594743
253	0x3c755473	0.014973748
254	0x3d35455a	0.044255592
255	0x39eb7021	0.00044906235

conv2.bias f4 [16]
0	0xbf2c9245	-0.6741069
1	0xbf0c2490	-0.5474329
2	0xbe1b108c	-0.15143031
3	0xbec00854	-0.37506354
4	0x3f74d039	0.9563022
5	0x3f09eaef	0.53874105
6	0x3e4c7fa7	0.1997057
7	0xbcbc9a34	-0.023022749
8	0x3cada4bf	0.021196721
9	0xbea5dd05	-0.32395187
10	0xbd6b8881	-0.057503227
11	0xbeefd999	-0.468457
12	0xbeab9f30	-0.33519888
13	0xbd3f8f56	-0.046767555
14	0x3ed64dd2	0.41856247
15	0x3c462d1a	0.012095714

fc1.weight f4 [120, 400]
0	0xbc0e26ed	-0.008676273
1	0xbd42933d	-0.0475037
2	0xbada227b	-0.0016642356
3	0xbd5ef06c	-0.054428503
4	0x3ab44aef	0.0013755242
5	0x3d2ba4e9	0.041905317
6	0x3d27da60	0.040979743
7	0x3c356ed9	0.011073791
8	0xbd2b7f83	-0.04186965
9	0xbc5a751f	-0.013333588
10	0x3d0e9084	0.03480579
11	0xbd7699db	-0.06020532
12	0xbbf5085b	-0.0074778027
13	0x3c119de6	0.008887744
14	0xbd09f788	-0.03368333
15	0xbad91dab	-0.0016564628
16	0xbd394c8c	-0.045239016
17	0x3cd610a8	0.02613099
18	0xbc5d5c68	-0.013510801
19	0xbb395e3e	-0.0028284932
20	0x3bced42f	0.0063119153
21	0xbd29ca56	-0.04145273
22	0xbd4b705c	-0.0496677
23	0x3c5c308a	0.013439307
24	0x3d3b3a44	0.045709863
25	0xbccf7a7b	-0.025326958
26	0xbd3b772b	-0.045767944
27	0xbd406b5b	-0.046977382
28	0xbcf04bcd	-0.02933302
29	0xbd755fe2	-0.059905894
30	0x3d3ff4ff	0.046864506
31	0xbd09ad6b	-0.03361265
32	0xbd0c8181	-0.034303192
33	0x3cde2143	0.02711547
34	0xbaf14930	-0.0018408652
35	0xbcab0b20	-0.020879328
36	0x3bd3ead0	0.006467201
37	0x3d3c9f4a	0.046050347
38	0xbd1e8bc2	-0.038707502
39	0xbcfa47a7	-0.030551745
40	0xbcd00527	-0.025393082
41	0x3c7250dd	0.014789787
42	0x3bec3791	0.0072087725
43	0xbbee5bcf	-0.007274128
44	0xbca10e25	-0.019660065
45	0xbc9f6352	-0.01945654
46	0xbca254ae	-0.019815769
47	0xbcf633d7	-0.030054016
48	0x3c5fb345	0.013653581
49	0x3d5e7451	0.054310147
50	0xbd3fcdbb	-0.04682706
51	0xbd2c7b25	-0.042109627
52	0xbc6eaa67	-0.014566994
53	0xbba9d8f9	-0.005183336
54	0xbd25d3b3	-0.040485095
55	0xbcc0948e	-0.023508336
56	0xbc1b961f	-0.009496241
57	0x3bf91862	0.0076017836
58	0x3b37c9f7	0.0028043964
59	0xbd4da393	-0.050204825
60	0x3d1b9878	0.037987202
61	0xbb934690	-0.0044944957
62	0xbd51f3b5	-0.051257808
63	0x3d1bd4d0	0.03804475
64	0x3ca2fd20	0.01989609
65	0x3cec90e3	0.028877681
66	0xbc93a205	-0.018021593
67	0x3d45baf9	0.048274014
68	0xbc7d3e5c	-0.015456762
69	0x3d80142b	0.06253847
70	0xbd162e34	-0.036665156
71	0xbc38a6b8	-0.011270218
72	0xbd1bf60a	-0.038076438
73	0x3d07dfd0	0.03317243
74	0x3c83c7b5	0.016086439
75	0x3c38277e	0.011239884
76	0x3cccfc3d	0.02502262
77	0xbd02aeb1	-0.03190488
78	0x3bea6ee3	0.007154332
79	0x3d16a107	0.03677466
80	0x3cfd1b59	0.03089683
81	0x3d229d85	0.039701004
82	0xbb40ca0e	-0.002941731
83	0x3c834d48	0.016028062
84	0x3c92b72d	0.01790961
85	0xbc92344e	-0.017847206
86	0xbcbd118a	-0.023079652
87	0x3c3a8a81	0.011385561
88	0xbc9385de	-0.018008169
89	0x3d0cfad6	0.034418903
90	0x3ad953b2	0.0016580729
91	0xbd0f8437	-0.0350382
92	0xbd0801ad	-0.033204723
93	0xbd3f4b7c	-0.046702847
94	0x3b2d09be	0.0026403512
95	0xbd325e85	-0.043547172
96	0xbd377196	-0.04478606
97	0xbba35953	-0.0049850135
98	0xbd1bb106	-0.03801062
99	0xbd17a86d	-0.037025858
100	0xbc0b0b31	-0.008486555
101	0xbd64f12f	-0.055894073
102	0xbc6e13c6	-0.014531082
103	0xbcfa1257	-0.030526323
104	0xbd5aada7	-0.053388264
105	0xbccd6e3f	-0.025076983
106	0x3cdd18d9	0.026989387
107	0xbd43b04b	-0.047775548
108	0xbb240de0	-0.0025032684
109	0xbc3bbefa	-0.011459107
110	0x3d01c029	0.0316774
111	0x3cd76dde	0.026297506
112	0xbcc54eea	-0.02408548
113	0xbd1e08b0	-0.038582504
114	0xbcb2268a	-0.021746892
115	0x3c94a845	0.018146643
116	0x3b78a284	0.0037938664
117	0x3cbbbd16	0.022917312
118	0x3c72b5a3	0.014813813
119	0x3d353a26	0.044244908
120	0xbd1ed795	-0.038779814
121	0x3c442b60	0.011973232
122	0xbd0454e7	-0.03230753
123	0x3d26fe31	0.04076976
124	0xbd3f4ee9	-0.046706114
125	0x3cb0d04b	0.021583697
126	0x3d837e65	0.06420592
127	0xbd0489c4	-0.032357946
128	0x3d3cb4c6	0.046070836
129	0x3ba98545	0.0051733577
130	0x3c562b9c	0.013071921
131	0x3c889541	0.016672732
132	0xbd1e4572	-0.038640447
133	0xbc963688	-0.01833655
134	0xbd3064dc	-0.043064937
135	0x3d0ea63a	0.034826495
136	0x3c539375	0.012913574
137	0xbd97bd0e	-0.07409106
138	0xbd431ee6	-0.04763689
139	0x3c1cf4dd	0.009579864
140	0xbb805f30	-0.0039175972
141	0xbbf3eb76	-0.0074438406
142	0x3d10ebe5	0.035381217
143	0x3b235a9f	0.002492584
144	0x3ced5d28	0.028975084
145	0xbc4e5c8f	-0.01259531
146	0x3d32db2d	0.043666054
147	0x3d0ecf43	0.03486563
148	0x3b614213	0.0034371659
149	0xbc50ac2d	-0.012736362
150	0x3cea6a10	0.028615028
151	0xbcfaab78	-0.03059934
152	0x3bdd2eea	0.0067499774
153	0xbc679fcc	-0.01413722
154	0xbcc1ee8e	-0.023673322
155	0x3c9c9b42	0.019117001
156	0xbd4e12c9	-0.050310884
157	0x3cea9780	0.028636694
158	0xbbef5bea	-0.007304658
159	0x3ca9ee6a	0.020743567
160	0xbd03b06f	-0.032150682
161	0xbd5eae96	-0.054365717
162	0xbd5a3e5c	-0.053282127
163	0xbc6513c5	-0.013981764
164	0x3d0d9cac	0.034573242
165	0x3ceb8024	0.028747626
166	0x3c6a93ca	0.014317462
167	0xbd24c242	-0.04022432
168	0xbc879cd5	-0.016554276
169	0xbccf5e3c	-0.02531349
170	0xbc27c466	-0.010239696
171	0x3ce35a81	0.027753117
172	0x3cbe32aa	0.023217518
173	0x3ce97616	0.02849869
174	0x3d4bde44	0.049772516
175	0xbb2b7671	-0.0026163126
176	0xbd759e48	-0.059965402
177	0x3b344a9e	0.0027510296
178	0xbd1930fe	-0.03740024
179	0xbcfcfb0b	-0.030881425
180	0x3b3efa9b	0.0029141072
181	0xbd6e4c84	-0.05817844
182	0x3d11455b	0.035466533
183	0xbd25a6e8	-0.040442377
184	0x3d0a2b8d	0.03373294
185	0x3cca21c6	0.024674308
186	0xbd2a7731	-0.041617576
187	0x3c87cc9e	0.016577061
188	0x3cb26394	0.021775998
189	0x3c8e82ee	0.017396417
190	0x3bc4bd4e	0.006004012
191	0x3ce49a22	0.027905528
192	0x3c927128	0.017876223
193	0x3c80b894	0.015713014
194	0xbd26c71a	-0.04071722
195	0x3d124022	0.035705693
196	0xba336bba	-0.00068443606
197	0x3d0a79ea	0.033807673
198	0x394775c4	0.0001902199
199	0xbd2f135c	-0.042743072
200	0xbd00504e	-0.031326585
201	0xbce62ed3	-0.0280985
202	0x3a963ea7	0.0011462764
203	0xbc5e8fc6	-0.013584083
204	0xbcbc16c9	-0.022960084
205	0xbd576f0b	-0.052596133
206	0x3caa5fa1	0.020797553
207	0xbc63c1dc	-0.0139012
208	0x3d18a43d	0.037266005
209	0x3c58a2fd	0.013222453
210	0x3cca289b	0.024677565
211	0x3cebc4c9	0.028780358
212	0x3bedf358	0.007261675
213	0x3d2509ab	0.040292423
214	0x3c80e0ad	0.015732134
215	0x3a5d9c61	0.0008453783
216	0xbd1832bd	-0.037157763
217	0xbca6edf6	-0.02037714
218	0x3cc74aa1	0.024327578
219	0x3cca9847	0.024730815
220	0xbbfec48e	-0.007774896
221	0xbc905357	-0.017617865
222	0xbac8a5c9	-0.0015308197
223	0xbd1cd3aa	-0.038287796
224	0x3a2e1880	0.0006641224
225	0xbd27fbf1	-0.041011754
226	0x3ced21e1	0.028946819
227	0x3c1b6c66	0.009486293
228	0x3a58fa2d	0.0008277025
229	0x3cb446bd	0.022006387
230	0x3cc887d6	0.024478834
231	0xbcadd30d	-0.0212188
232	0xbd08d1be	-0.03340315
233	0xbcc64241	-0.024201514
234	0xbd465e45	-0.048429746
235	0x3beceb49	0.0072301966
236	0xbc0300c9	-0.007995793
237	0xbc296a4f	-0.010340287
238	0x3c222337	0.009896091
239	0xbd4ac4e5	-0.04950418
240	0xbcb1dd80	-0.021712065
241	0xbd6c2fce	-0.057662778
242	0x3c774cd9	0.0150940055
243	0x3c473858	0.0121594295
244	0xbc96b5b5	-0.018397192
245	0x3c143b3b	0.009047325
246	0xbd24d886	-0.040245555
247	0xbd063adb	-0.032770973
248	0xbc9e43dc	-0.019319467
249	0x3bd712d8	0.0065635256
250	0xbc8b71a5	-0.017021963
251	0x3d101659	0.035177562
252	0xbcf341bf	-0.029694436
253	0x3d05d879	0.032677148
254	0xbc99b292	-0.018761907
255	0x3bdb0d51	0.006684937

fc1.bias f4 [120]
0	0xbad573d2	-0.0016285127
1	0xbbbe37b2	-0.0058049792
2	0x3ba402ad	0.005005202
3	0x3deae3a4	0.114692
4	0x3df8da88	0.121510565
5	0xbd548a87	-0.051889922
6	0x3e03b6b5	0.12862666
7	0x3dc20f20	0.09475541
8	0x3d9e39a5	0.077258386
9	0x3e3db454	0.18525821
10	0xbd89f761	-0.06736637
11	0xbd8eb7ae	-0.06968628
12	0x3aad2145	0.0013208768
13	0x3a9be13a	0.0011892684
14	0x3be4b90e	0.006980068
15	0x3dfad640	0.12247896
16	0x3d8ecd4e	0.069727525
17	0xbd851d75	-0.06499759
18	0x3dfd0e64	0.123562604
19	0x3d7e0c10	0.062023222
20	0xbdb9e49c	-0.09076807
21	0xbcd25ca5	-0.025678942
22	0xbd1d35ea	-0.038381495
23	0x3c71ec4b	0.014765809
24	0x3dba0125	0.090822496
25	0xbe1f5391	-0.15559222
26	0x3e360496	0.17775187
27	0x3c1e7615	0.009671708
28	0xbe8748ff	-0.2642288
29	0xbd379577	-0.044820275
30	0x3c175e80	0.009238839
31	0x3cbee1b0	0.023300976
32	0x3d641f09	0.05569366
33	0xbc608867	-0.013704396
34	0xbd11a938	-0.03556177
35	0xbd4e2bbc	-0.050334677
36	0xbd4495bf	-0.04799437
37	0x3e1f3cbb	0.1555051
38	0x3dbaa4b8	0.09113449
39	0x3d53868e	0.051641993
40	0x3cabb227	0.020958973
41	0x3e4e5448	0.20149338
42	0x3d01eac7	0.03171804
43	0x3d294948	0.041329652
44	0x3dbafd89	0.09130389
45	0xbd90da8d	-0.07072935
46	0x3d532ccb	0.05155639
47	0xbe19b194	-0.15009147
48	0x3d0960fb	0.033539753
49	0xbcb79127	-0.022408081
50	0xbb13f3fa	-0.0022575841
51	0x3cf8e571	0.030382844
52	0xbd086956	-0.03330358
53	0x3e011ebf	0.12609385
54	0x3d24be39	0.040220473
55	0xbda51822	-0.080612436
56	0xbd426ca4	-0.04746689
57	0xbd915b80	-0.0709753
58	0x3d9b9c2b	0.07598146
59	0x3b8b7980	0.0042564273
60	0xbd1a47ee	-0.037666254
61	0xbd21f36e	-0.039538793
62	0x3d33c4cd	0.043888856
63	0xbd8619fe	-0.06547926
64	0xbd388a7f	-0.045053955
65	0x3d0777cc	0.03307323
66	0x3d10688c	0.035255954
67	0xbd62cf13	-0.055373263
68	0x3cd75050	0.026283413
69	0x3b0f1f84	0.0021838853
70	0x3d0dfdaa	0.03466574
71	0xbd4c1225	-0.04982199
72	0x3d0ba9d0	0.034097493
73	0xbd2a7789	-0.041617904
74	0x3beddeb5	0.0072592148
75	0x3ccf9713	0.025340592
76	0x3d5c11af	0.053727802
77	0xbd53285a	-0.051552154
78	0x3c2a5cbf	0.010398089
79	0xbca523af	-0.020158617
80	0xbe041b95	-0.12901147
81	0xbe5162f9	-0.20447911
82	0x3d5e57d4	0.05428298
83	0x3cace1a9	0.021103697
84	0x3da0afa9	0.078460045
85	0xbd2d48dc	-0.042305812
86	0x3c9aafc8	0.018882647
87	0x3e524036	0.20532307
88	0x3db901a5	0.09033517
89	0x3da260dc	0.07928631
90	0x3d6f9742	0.05849386
91	0x3e147937	0.14499365
92	0x3d7c1f4c	0.061553285
93	0xbc280706	-0.010255581
94	0x3da91057	0.0825507
95	0x3c58c55f	0.013230651
96	0x3c37a306	0.011208301
97	0xbdf1db9b	-0.118094645
98	0xbd012ed8	-0.031538814
99	0x3dc73632	0.09727134
100	0x39e859e3	0.0004431746
101	0x3d79413d	0.06085323
102	0x3dbbf357	0.09177273
103	0x3ccfd3c7	0.025369538
104	0x3de7d6e5	0.11320285
105	0x3d0d4772	0.034491964
106	0x3d4205ba	0.047368743
107	0x3dbb29a4	0.09138802
108	0x3e135e10	0.14391351
109	0x3ddd24c0	0.10798025
110	0xbca48496	-0.020082753
111	0xbd647e8d	-0.05578475
112	0xbd8acf39	-0.06777806
113	0xbb4e5254	-0.0031482177
114	0x3e935e2d	0.28782788
115	0x3d068476	0.03284117
116	0xbd5cde41	-0.053922895
117	0x3da5d79a	0.08097763
118	0x3e02d1d5	0.12775357
119	0x3cf5c5da	0.03000157

fc2.weight f4 [84, 120]
0	0x3b42973a	0.002969219
1	0xbcc99624	-0.024607725
2	0x3dc8d069	0.09805376
3	0xbcf48e93	-0.029853141
4	0xbe1e210c	-0.15442294
5	0x3b804bbc	0.0039152782
6	0x3dc304eb	0.095224224
7	0xbdf57fd7	-0.11987274
8	0xbd67262a	-0.05643288
9	0xbd947dff	-0.07250594
10	0x3c325ab9	0.010885888
11	0x3d7b0307	0.061282184
12	0xbd1d1b7d	-0.038356293
13	0xbdb88b78	-0.090109766
14	0x3d408d2d	0.047009636
15	0xbbef4b58	-0.007302683
16	0xbdae35db	-0.08506366
17	0xbce9f069	-0.02855702
18	0xbcf4334c	-0.029809617
19	0xbd5ae4b2	-0.053440757
20	0x3dc23006	0.09481816
21	0x3d01f774	0.03173013
22	0xbd871da1	-0.06597448
23	0x3c48727c	0.012234326
24	0x3d310fce	0.043227963
25	0x3c8f4a09	0.017491357
26	0xbdaa6bb9	-0.08321328
27	0x3cb099f6	0.02155779
28	0x3c138c31	0.009005592
29	0xbd5c5ffb	-0.05380247
30	0x3d97c80a	0.07411201
31	0xba6166fc	-0.0008598415
32	0x3d1abd28	0.03777805
33	0xbcf786f0	-0.03021571
34	0xbdb15d6a	-0.086603954
35	0x3d4f3872	0.05059094
36	0xbcd34699	-0.0257905
37	0xbd273b7f	-0.040828224
38	0x3db17cce	0.08666383
39	0x3c308175	0.010773052
40	0xbd6493fe	-0.0558052
41	0x3d84317a	0.064547494
42	0xbc03f539	-0.008054071
43	0x3ddd64a5	0.10810212
44	0x3d5fa288	0.05459836
45	0x3c054368	0.008133747
46	0xbb46ed08	-0.0030353684
47	0xbcd398f7	-0.025829775
48	0xba849448	-0.0010114992
49	0xbdb9014d	-0.09033451
50	0xbd559382	-0.052142628
51	0x3caa359e	0.02077752
52	0xbd75ef01	-0.060042385
53	0xbd97d59f	-0.07413792
54	0x3d8ff18e	0.07028495
55	0x3dc92d9b	0.09823152
56	0xbd774132	-0.06036491
57	0x3dfc18a7	0.123093896
58	0x3cb73969	0.022366242
59	0xbcd27fea	-0.02569576
60	0x3d3b9806	0.045799278
61	0xbd8220cc	-0.06353912
62	0xbc8eb727	-0.017421318
63	0xbcd18b48	-0.02557911
64	0x3d06e036	0.032928668
65	0xbd88d2fd	-0.06680868
66	0x3d47a208	0.04873851
67	0xbce43cbb	-0.02786099
68	0xbd611b3d	-0.054957617
69	0xbbc29d55	-0.0059391656
70	0xbc6b6188	-0.014366515
71	0x3d6e9910	0.05825144
72	0xbd5084fe	-0.05090808
73	0xbc124850	-0.008928373
74	0xbddb3118	-0.10702723
75	0xbd71d63f	-0.05904221
76	0xbd34916c	-0.044083998
77	0xbbc356c5	-0.0059612715
78	0xbcd88e39	-0.026435005
79	0x3db025c7	0.086009555
80	0xbd856561	-0.06513477
81	0x3dbc95d5	0.09208266
82	0x3c58e1d7	0.013237438
83	0x3d3030ed	0.04301541
84	0xbd8e76ef	-0.069562785
85	0x3d6b1cb5	0.057400424
86	0xbd3c5750	-0.045981705
87	0x3abbdb77	0.0014332373
88	0x3d6929ad	0.05692451
89	0xbd935c89	-0.07195384
90	0x3dfd9491	0.123818524
91	0x3dcbda51	0.0995375
92	0xbd7a92d4	-0.061175182
93	0xbbaff0f2	-0.005369299
94	0xbd25a1bc	-0.040437445
95	0xbdbee109	-0.09320266
96	0xbcf81aaf	-0.030286161
97	0x3cdf28fa	0.027241219
98	0xbcff263e	-0.031146165
99	0x3d2846d0	0.041083157
100	0x3c140e7c	0.0090366565
101	0x3b5a65d7	0.0033324861
102	0x3dde6b5d	0.10860322
103	0x3c8c4773	0.017123913
104	0xbd3c117e	-0.04591512
105	0xbd49b26f	-0.049242433
106	0x3db3cf1a	0.08779736
107	0x3d890f0f	0.06692325
108	0xbd66ed66	-0.056378745
109	0xbb7f8cc7	-0.0038993822
110	0xbb5b471a	-0.0033459128
111	0x3c7733be	0.01508802
112	0x3d8e330d	0.06943331
113	0xbd7d560e	-0.061849646
114	0x3c94e318	0.018174693
115	0x3ccecd76	0.025244456
116	0x3c00fb25	0.0078723775
117	0xbdd87f92	-0.10571207
118	0x3d34e120	0.04416001
119	0xbda15c2d	-0.07878909
120	0x3d370586	0.044683002
121	0xbd91d582	-0.071208015
122	0xbbb3da40	-0.005488664
123	0x3dd2fd47	0.10302215
124	0xbd339195	-0.04384001
125	0xbd217414	-0.03941734
126	0xbb00fb23	-0.001968094
127	0x3c8dadc8	0.01729478
128	0x3db8b717	0.090192966
129	0x3dfaffd3	0.12255826
130	0x3d54705b	0.051864963
131	0xbd1a0fab	-0.0376126
132	0x3d6a0f08	0.05714324
133	0x3b2a138b	0.002595159
134	0xbde743bb	-0.112922154
135	0x3c5d7384	0.013516311
136	0xbe23ae6f	-0.1598451
137	0xbd3af47b	-0.04564331
138	0x3df4fbc4	0.11962083
139	0x3dddec9e	0.10836147
140	0x3da7e37e	0.081976876
141	0x3d0c5607	0.03426173
142	0xbddf79f0	-0.109119296
143	0x3d5ac345	0.05340888
144	0xbd14c020	-0.036316037
145	0x3d0cbd15	0.03436001
146	0xbdb99ba4	-0.09062889
147	0xbd118ee3	-0.035536658
148	0xbda33eab	-0.07970937
149	0x3c19fdc7	0.009398884
150	0x3d7731d9	0.060350273
151	0x3d386f61	0.045028094
152	0x3c0bb944	0.0085280575
153	0xbcbdc588	-0.02316548
154	0x3d6c94c7	0.057759073
155	0xbd9a9b5a	-0.07549162
156	0x3ca1e66c	0.019763194
157	0x3df7b9da	0.12095995
158	0x3d9b7636	0.07590906
159	0x3ccc0d8e	0.024908807
160	0x3d9c463b	0.07630583
161	0x3df68c33	0.1203846
162	0xbd4d87cd	-0.050178338
163	0xbcfa42e1	-0.030549468
164	0xbd2cdc2a	-0.042202152
165	0x3d97bd36	0.07409136
166	0x3def7c4b	0.11693629
167	0xbd8e2741	-0.06941081
168	0x3d771adc	0.06032835
169	0xbd26176d	-0.040549684
170	0xbd1011ee	-0.03517335
171	0xbd2df164	-0.042466536
172	0x3daba224	0.08380535
173	0x3d5d5752	0.054038353
174	0x3d81a777	0.063307695
175	0xbdc1f157	-0.0946986
176	0x3d6f2eaa	0.05839411
177	0xbe242f02	-0.16033557
178	0xbda79776	-0.08183186
179	0x3cbe8605	0.023257265
180	0xbc52d282	-0.012867572
181	0x3d0a8d55	0.03382619
182	0xbcc3a38a	-0.023881692
183	0x3dffeb66	0.124960706
184	0x3d7cbb01	0.06170178
185	0xbdb472fe	-0.088109955
186	0x3d870028	0.06591827
187	0x3d9efaf3	0.077627085
188	0x3a69a7d5	0.00089132536
189	0xbdac13f8	-0.08402246
190	0x3d428d8b	0.047498267
191	0x3d09c690	0.03363663
192	0xbda1aad6	-0.078939125
193	0x3d877f79	0.0661611
194	0x3c070d31	0.008242891
195	0x3d9bf245	0.076145686
196	0x3d56cc48	0.05244091
197	0x3d51cb75	0.051219422
198	0xbdfdae0e	-0.12386714
199	0x3d959f0c	0.073057264
200	0xbde8d4d7	-0.11368721
201	0xbe11b6f7	-0.14229952
202	0x3e29a08e	0.16565153
203	0x3d0d067e	0.03443002
204	0xbd1d1eb1	-0.038359348
205	0xbdf943e3	-0.121711515
206	0x3d96db8b	0.07366093
207	0x3b7bc48b	0.003841671
208	0xbd0a16f1	-0.033713285
209	0x3db08439	0.086189695
210	0x3d7212a6	0.059099816
211	0xbcfc7e58	-0.030821964
212	0x3c3da1ed	0.011574251
213	0x3d29b62f	0.04143351
214	0xbc7f9349	-0.01559908
215	0x3db4b7b1	0.08824099
216	0xbd5bba8b	-0.053644698
217	0xbbb68a16	-0.0055706603
218	0xbc3a41de	-0.011368243
219	0x3db32255	0.08746783
220	0x3d11b0a6	0.035568856
221	0xbce271e6	-0.027642202
222	0xbbc93af5	-0.0061410614
223	0xbd0b670f	-0.03403383
224	0xbdc4773a	-0.09593053
225	0xbdf72b43	-0.120687984
226	0x3e1396a9	0.14412941
227	0xbd940b22	-0.07228686
228	0x3cbdedc9	0.023184674
229	0xbdd91d6c	-0.10601315
230	0xbd12163d	-0.03566574
231	0xbda53115	-0.08066002
232	0x3d243521	0.04008973
233	0x3d09d6c1	0.03365207
234	0x3d8ff063	0.07028272
235	0xbdb8f68e	-0.090314016
236	0x3d077b3f	0.03307652
237	0x3dd57117	0.10421961
238	0x3dae37c6	0.08506732
239	0xbdb135b9	-0.08652825
240	0x3da4ad9b	0.08040925
241	0x3d32dc7d	0.043667305
242	0xbbde4fb9	-0.006784406
243	0x3cb9fe74	0.02270434
244	0x3d69cd3f	0.057080504
245	0x3d87a47a	0.06623168
246	0xbca98f42	-0.020698193
247	0x3d540797	0.05176505
248	0x3db0eb9d	0.0863869
249	0x3b9ff271	0.004881196
250	0x3d8ec887	0.06971841
251	0xbc27a664	-0.010232542
252	0x3c302a83	0.010752323
253	0x3cc11dd3	0.023573792
254	0xbdb54b26	-0.08852224
255	0xbd217087	-0.039413955

fc2.bias f4 [84]
0	0xbe02a491	-0.1275809
1	0x3e0bf5d0	0.13667989
2	0x3d8719f6	0.065967485
3	0x3de8635d	0.11347077
4	0xbda0728f	-0.0783435
5	0x3d826b4a	0.0636812
6	0xbe5215fb	-0.20516197
7	0xbc919391	-0.01777056
8	0xbd4a289b	-0.04935513
9	0x3e19d9fa	0.15024558
10	0x3e8d935b	0.27651486
11	0x3d6ae811	0.057350222
12	0xbe2fb60b	-0.17159288
13	0x3e2784fc	0.16359323
14	0x3d7df16a	0.06199781
15	0x3dbddd13	0.09270682
16	0xbd33686d	-0.04380076
17	0x3a3ea54a	0.0007272555
18	0x3c3916a6	0.011296904
19	0x3d899a11	0.06718839
20	0x3e96f27e	0.29481882
21	0xbd9d2c42	-0.07674457
22	0x3d359b81	0.044337753
23	0x3cc7b410	0.024377853
24	0x3ccedf00	0.025252819
25	0x3ddc852f	0.1076759
26	0xbd7bdcf0	-0.06149
27	0x3e0da98e	0.13834211
28	0x3ebd1a2d	0.36934033
29	0x3e05b499	0.13057174
30	0x3d84f6fb	0.0649242
31	0x3e30c18a	0.1726133
32	0x3ec1a5e3	0.37821874
33	0xbdddd88d	-0.108323194
34	0x3cfe795a	0.031063724
35	0xbd4ff852	-0.050773926
36	0x3c457997	0.012052915
37	0x3dda53c7	0.106605105
38	0x3e676eeb	0.22600906
39	0x3db22238	0.08697933
40	0x3c93033f	0.017945884
41	0xbe5e833b	-0.21729748
42	0x3e634e71	0.22197892
43	0xbc2170af	-0.009853526
44	0xbd4fbd77	-0.050717797
45	0xbdcf0fa3	-0.10110404
46	0xbca1a191	-0.019730361
47	0xbdd9b9ed	-0.10631166
48	0x3e868c04	0.26278698
49	0x3d94b3e7	0.07260876
50	0xbd5c090f	-0.053719576
51	0x3e90042b	0.2812818
52	0xbd8bafdc	-0.06820652
53	0x3d19129a	0.037371255
54	0xbd5b2bbd	-0.05350851
55	0x3d8d9927	0.06913977
56	0x3d69408c	0.056946322
57	0xbd8cd304	-0.068761855
58	0x3dfb043c	0.12256667
59	0x3de418d5	0.11137549
60	0x3e72ed56	0.23723349
61	0xbd201eff	-0.03909206
62	0xbd2bea35	-0.041971404
63	0x3e13f63e	0.14449403
64	0x3c985eef	0.018599955
65	0xbde01a70	-0.109425426
66	0xbd92dbd0	-0.07170832
67	0xbd0c4457	-0.03424486
68	0x3dc4a224	0.09601238
69	0x3d65a5a7	0.05606618
70	0x3e8387d1	0.25689557
71	0x3c6a0d20	0.014285356
72	0x3d2c9213	0.042131495
73	0x3d822593	0.06354823
74	0xbda25cbb	-0.07927843
75	0x3ec8a416	0.39187688
76	0xbd5a24ab	-0.053257626
77	0xbd976e17	-0.07394045
78	0x3c8a92d2	0.016915713
79	0xbd4e5a53	-0.05037911
80	0xbcf46bfa	-0.029836643
81	0xbdc26913	-0.094926976
82	0x3e34b86a	0.17648473
83	0xbcc0978e	-0.023509767

fc3.weight f4 [10, 84]
0	0x3c2f7e3b	0.010711248
1	0x3c055a46	0.008139199
2	0x3da5bd07	0.08092695
3	0x3e635a85	0.22202499
4	0xbd7bea8c	-0.06150298
5	0x3e405b39	0.18784799
6	0x3d0947bd	0.03351568
7	0xbd925448	-0.071449816
8	0x3c7aece1	0.015315265
9	0xbd717d43	-0.05895735
10	0xbe83ddec	-0.2575525
11	0x3db3a200	0.087711334
12	0xbce39dca	-0.0277852
13	0xbe2d26dd	-0.16909356
14	0xbd4c061a	-0.049810506
15	0xbdf7029b	-0.12061044
16	0xbdaa0224	-0.083011895
17	0xbda9d370	-0.08292282
18	0x3be216ce	0.006899691
19	0x3c025b20	0.007956296
20	0xbdc55d7f	-0.096369736
21	0x3c05d28b	0.008167873
22	0xbdb64ea5	-0.08901719
23	0x3e256cb9	0.16154756
24	0xbde5e1d1	-0.11224712
25	0x3e281399	0.16413726
26	0x3e3e4aea	0.18583265
27	0xbe9034df	-0.28165337
28	0xbea33751	-0.3187814
29	0x3e559b88	0.20860112
30	0xbda08e91	-0.078396924
31	0xbdd2930e	-0.10281955
32	0xbc3c2365	-0.011483048
33	0xbdd228b8	-0.10261673
34	0xbda443e7	-0.08020764
35	0x3dbb144f	0.09134733
36	0x3ae126d3	0.0017177708
37	0xbc4edffd	-0.012626645
38	0xbd6c1354	-0.05763562
39	0x3e7fc2f0	0.24976707
40	0xbd9c4281	-0.07629872
41	0x3e345225	0.1760946
42	0x3c6253a3	0.013813886
43	0xbcfadee3	-0.030623859
44	0xbe0172f6	-0.1264151
45	0x3d6b711c	0.057480916
46	0x3dcc7695	0.09983555
47	0x3df32fea	0.11874373
48	0x3e8b591b	0.2721642
49	0x3cd6d5ca	0.02622499
50	0x3e2c7a37	0.16843496
51	0x3e6bd04e	0.2302868
52	0xbb3a2fa3	-0.0028409741
53	0x3e24e432	0.16102675
54	0xbdab19d4	-0.08354536
55	0x3e40b0e5	0.1881748
56	0xbdd95ad8	-0.1061303
57	0xbdb17d45	-0.086664714
58	0xbbbd5641	-0.0057781045
59	0xbd1e3c65	-0.038631815
60	0xbe5e4c7a	-0.21708861
61	0xbd83db8a	-0.06438358
62	0x3d851dd6	0.064998314
63	0x3e2af1a3	0.1669374
64	0xbd3235ab	-0.043508213
65	0xbd4e171c	-0.050315008
66	0x3da7834c	0.0817934
67	0x3d1e4541	0.038640264
68	0x3e421f59	0.1895727
69	0xbc0ea421	-0.008706124
70	0x3e6e4717	0.23269306
71	0xbce84d50	-0.028357178
72	0x3d78aba8	0.06071058
73	0x3e174b3a	0.1477479
74	0x3d01ebf1	0.031719152
75	0x3d399c61	0.04531515
76	0x3dc7a507	0.09748273
77	0x3ce33fb6	0.02774034
78	0xbd73c207	-0.05951121
79	0xbc84e652	-0.016223107
80	0x3ca23f9c	0.019805722
81	0xbcec7704	-0.028865345
82	0xbd361e40	-0.044462442
83	0x3c2f529b	0.010700847
84	0x3d8dcc8d	0.069237806
85	0xbcee06ab	-0.029055914
86	0x3a6d978c	0.0009063415
87	0xbcd7c858	-0.026340649
88	0x3a519df9	0.0007996257
89	0xbdd3392e	-0.103136405
90	0x3e2b1a7f	0.16709326
91	0x3d3cc5d4	0.0460871
92	0xbdd5675f	-0.10420107
93	0xbe0813f5	-0.13288863
94	0xbe9151fa	-0.28382856
95	0x3c366b98	0.011134051
96	0x3d8cdffc	0.06878659
97	0x3e0f7ded	0.1401288
98	0x3e7688ab	0.24075572
99	0x3cfb528c	0.03067901
100	0xbcb18b66	-0.021672916
101	0xbdc1623c	-0.09442565
102	0xbc233fa6	-0.009963905
103	0x3d400486	0.046879314
104	0xbe38e258	-0.18055093
105	0x3d552c1b	0.052044015
106	0x3e4bf5e6	0.19918022
107	0x3e514998	0.2043823
108	0x3cd24498	0.025667474
109	0x3cb0cc77	0.021581871
110	0xbdf16fcf	-0.11788904
111	0x3d1401ac	0.036134407
112	0xbea070aa	-0.31335956
113	0x3c871fb7	0.016494615
114	0x3bbfc301	0.0058521037
115	0xbdb82ed6	-0.08993308
116	0x3c883ad7	0.01662962
117	0x3dec5608	0.11539847
118	0xbd3cfc2e	-0.046138935
119	0xbdc81870	-0.09770286
120	0x3c91e791	0.017810615
121	0xbe199398	-0.14997709
122	0xbe6027bc	-0.21890157
123	0x3e8418b6	0.25800103
124	0x3e95a836	0.29229897
125	0x3d121a66	0.035669707
126	0xbdeb56c8	-0.114911616
127	0xbdf170a0	-0.1178906
128	0x3d07d26f	0.03315967
129	0xbd6de9c1	-0.058084253
130	0xbdb7bf0e	-0.08971988
131	0xbd41d6a4	-0.047323838
132	0xbe145f73	-0.14489536
133	0x3e1fa7a3	0.15591292
134	0xbe37d39b	-0.17951815
135	0x3e7ccfa9	0.24688591
136	0xbb50f393	-0.0031883463
137	0xbe86ad4e	-0.26304096
138	0xbda52f1c	-0.08065626
139	0x3de8b3f6	0.1136245
140	0x3c5c1308	0.013432272
141	0x3e359713	0.17733411
142	0xbdd21601	-0.10258103
143	0xbe68ed41	-0.22746755
144	0xbe84b348	-0.2591803
145	0xbd213c84	-0.039364353
146	0x3e017e53	0.12645845
147	0x3d382ea2	0.044966348
148	0x3d305fa6	0.043059967
149	0x3e5af3c3	0.2138205
150	0x3eb0728c	0.34462392
151	0xbbca5ac6	-0.006175372
152	0xbdf9eddd	-0.12203572
153	0xbe082d03	-0.1329842
154	0xbd83e630	-0.06440389
155	0xbd0d1bc5	-0.03445031
156	0x3cb203db	0.021730354
157	0xbe603bae	-0.21897766
158	0x3cbd0938	0.023075685
159	0xbcff8215	-0.031189958
160	0xbe1fa392	-0.15589741
161	0xb96e9583	-0.00022753146
162	0x3ca52e6b	0.020163735
163	0xbd7185f5	-0.058965642
164	0xbd2d7379	-0.04234645
165	0xbca34af9	-0.01993321
166	0xbe4401eb	-0.19141357
167	0x3dd3c4a6	0.10340242
168	0x3d9e8165	0.07739524
169	0xbd25f2e3	-0.040514838
170	0x3e603a6c	0.21897286
171	0xbe06ed61	-0.1317649
172	0xbd9bf3dc	-0.07614872
173	0x3e23bdc5	0.1599036
174	0xbe267ab1	-0.1625774
175	0x3d898b7e	0.06716059
176	0x3cdff3a5	0.027337858
177	0x3d7cf366	0.06175556
178	0x3d05a833	0.03263111
179	0xbdcd8250	-0.10034621
180	0xbcf6653d	-0.030077571
181	0xbe0149b8	-0.12625778
182	0x3d06f417	0.032947626
183	0x3d34274f	0.0439828
184	0xbccaede9	-0.024771648
185	0xbe17491c	-0.14773983
186	0x3d69709a	0.05699215
187	0xbe247534	-0.16060334
188	0xbd08c2de	-0.033388965
189	0x3d16c894	0.03681238
190	0xbc1cf7d4	-0.009580571
191	0xbdfa33d8	-0.1221692
192	0xbe1ba34f	-0.15199016
193	0x3dcd4bc1	0.100242145
194	0x3b347847	0.0027537511
195	0xbda97fbb	-0.08276316
196	0x3e49cb4e	0.19706461
197	0x3d0fb646	0.03508594
198	0x3cc69655	0.024241606
199	0xbe806bfa	-0.2508238
200	0x3dc42353	0.0957705
201	0xbe2ac24c	-0.16675681
202	0x3e52a94e	0.20572397
203	0xbda85925	-0.08220128
204	0x3e169cd6	0.14708266
205	0x3d099c56	0.03359636
206	0x3e72158d	0.23641033
207	0xbdb436f1	-0.08799542
208	0xbdea1316	-0.114294216
209	0xbe0a10a6	-0.13482913
210	0xbdefb01a	-0.117035106
211	0xbd52a7e9	-0.051429663
212	0xbd3a5232	-0.045488544
213	0xbdb07b6f	-0.08617293
214	0x3ba40997	0.005006026
215	0xbcf1fd70	-0.029539794
216	0x3eb1249d	0.34598246
217	0xbda82c56	-0.082115814
218	0xbc96fb5a	-0.0184304
219	0xbe2c3856	-0.16818365
220	0x3dd7d8dd	0.1053941
221	0x3db363a5	0.0875924
222	0x3e166184	0.14685637
223	0x3dc25e54	0.09490648
224	0xbdd931a8	-0.10605174
225	0xbdafadde	-0.085780844
226	0xbe01abd0	-0.12663198
227	0x3df3eacf	0.119100206
228	0x3dc2b24e	0.09506665
229	0xbd174e98	-0.036940187
230	0xbe335f96	-0.17516932
231	0x3e51a62b	0.20473544
232	0x3d14311c	0.036179647
233	0x3e2f9149	0.17145266
234	0xbd9348e9	-0.07191641
235	0xbd771233	-0.06032009
236	0x3e66bfb6	0.2253407
237	0xbd86a27c	-0.0657396
238	0x3daa0bca	0.0830303
239	0x3d5e4898	0.05426845
240	0xbda79e12	-0.081844464
241	0x3de720c7	0.11285549
242	0x3cf6602c	0.030075155
243	0x3e73ac64	0.2379623
244	0x3e5d51dc	0.21613258
245	0xbd43d7db	-0.047813278
246	0xbd179ac4	-0.03701283
247	0x3d851599	0.0649826
248	0xbd9ba3de	-0.075996146
249	0x3c88082b	0.016605457
250	0x3e823aab	0.25435385
251	0x3e601b80	0.2188549
252	0x3d21b4b7	0.039478984
253	0x3d4a73ad	0.049426723
254	0x3d1a9cec	0.03774731
255	0xbd820306	-0.06348233

fc3.bias f4 [10]
0	0xbe64e76f	-0.2235391
1	0xbf07d55a	-0.53059924
2	0x3db27649	0.08713967
3	0x3e6a1775	0.2286051
4	0x3f1968ab	0.59925336
5	0xbe306192	-0.1722472
6	0x3e8d5651	0.27604917
7	0xbe2cf739	-0.16891183
8	0x3e902709	0.2815478
9	0xbea65c80	-0.32492447
